dl_learn/ff_nmodel/ff_nm_29.pth (torch, 587399 bytes, 10 tensors)

weight f4 [32, 3, 5, 5]
00000000: f595 abbc 2290 dbbd 2ba4 0bbd 24d1 fabc
00000010: 7e73 00bd b404 db3c abcf 96be 344b e6bd
00000020: 0896 80be 5851 39bb 145c 0c3c 569d 32be
00000030: a53f dabc cf65 14bd 4d82 79bd 470c 253d
00000040: 2775 6dbe 751e 15be bf27 b6bd ea36 9cbd
00000050: 5d4f 8bbd c9d2 e6bd 2387 02bd 269e e4bd
00000060: 0e00 b13d 2209 1d3e b375 c7bd 4cba 373e
00000070: ee8b 6c3a 4d93 203c 512b 88bd 1ea8 30bd
00000080: 5b34 073d d978 d5bd bcbb fdbc edf8 583c
00000090: 759f ab3d a903 793e 9777 b13d ea62 df3d
000000a0: 9723 a53a e763 69bd df03 303e a680 72bd
000000b0: 82aa fc3c 3da6 93bd 0eda 933b 55dc 9b3d
000000c0: 2b92 e0bd c88e cb3d 4a45 323e d182 dc3d
000000d0: 10a9 133e d390 a43d 2fc4 c1bc a4c3 8fbd
000000e0: 95bf 0ebe 74ac dabb c862 a8bc a836 d73c
000000f0: 328c 703d 4605 be3d 24bb 9e3e e2b5 5a3d
00000100: 9146 273e b43c 233e 05f9 cd3d 614d 113e
00000110: 7c87 bbbd e515 92bd ee01 8b3d 02bd 1b3d
00000120: 050f fe3d 1f17 c0bc a405 523d b174 503e
00000130: d3e2 403e 6428 08be 568c 34be 30e1 ee3c
00000140: ec62 a93c ee79 e1bd de00 4dbe 9608 623d
00000150: 0382 7f3d e8bb 9abe a368 8bbe e9e8 4dbe
00000160: a242 01be 4da3 2abe eb86 85be 6b6e 5ebe
00000170: 9955 f73d 1455 debc da25 1abe 0f87 733d
00000180: 4481 cc3d 1857 303e 2414 9ebd c920 77bd
00000190: e43e 8c3e 6afc 933e abbb 9cbd 4f43 913d
000001a0: 939d d7bc 7d30 223e bc12 a63d cdaf 5ebe
000001b0: b9ef 573c 0400 333e 14cb 7cbe c52a 2bbe
000001c0: 5c49 f4bd ef08 0a3e f179 9d3d 610b b9bd
000001d0: 2a0e e2bd f62c 903e 3f5f 10bd 96df 8fbd
000001e0: 3593 0e3e 7941 893e 9056 4d3e 24e3 603c
000001f0: 7b1a 003e 2a31 183e 156d 8d3d 0340 37bc
00000200: 36ee 853d 902d 05be d923 b1bc 62a6 313d
00000210: af3b 0abe 15fa b73d d9b2 b53d 01c6 4ebe
00000220: d42a a6be c730 37be 7162 1a3e 6197 8c3d
00000230: 2425 28be 6fea 75bd 4246 443e 6be3 82bd
00000240: e0b7 f9bd 13c4 743d a097 783e 80ce a43d
00000250: edb1 55bc 6b4b 3c3d 1f3b a83d 8604 d2bd
00000260: d2c7 8b3d b661 ad3d 441a a43d b17a cdbd
00000270: d4e5 33be b3fc 4f3b f0f4 063d 5dce 803c
00000280: a125 29be 868c 83be a349 49be ae50 a7bd
00000290: 82f1 a03d 4bac 0a3d aa3d 6abd dc41 48be
000002a0: 9b23 2fbe 91a0 21be 63dd 67bd 7e25 1ebd
000002b0: 822a 52bd c79e 8c3d 405f 5e3d fe6a 6bbd
000002c0: be55 76bd e9e1 fcbd 36f7 27bd e66c 9dbd
000002d0: 1104 003d 30b8 99bd 06ea 6a3d 484e 37bd
000002e0: 5a5d 003d d222 563c 91f6 8fbd d211 083c
000002f0: 1325 8bbd a0d3 c0bd 792f 473d 14ca 11be
00000300: 923b d7bb ed63 49bb 7d70 4abc 8b7a ccbd
00000310: 6e3a 883d 15cd 723d 34ae b2bd 520f 9dbd
00000320: 7122 703d 6ce1 be3d d2fe 1d3e 5b43 d43d
00000330: 7ed4 2ebd 373f 783d edf1 c33c 32ef 243d
00000340: 66f0 403e 7ab6 9dbd ed59 d4bb 9585 f23d
00000350: fd38 163e 8005 cd3d 709c 403e 82e2 253e
00000360: c513 a23c e618 53bd ffe6 a53d df06 cf3d
00000370: 5122 2b3e 5833 183d 91b2 3cbc 9a99 cc3d
00000380: 93ea 333d e3ed f33d 0644 143e 3776 22be
00000390: 287c 2dbe cc39 5ebc 74a5 433e 8b94 3c3e
000003a0: 37be 5f3d 504e 53bd 8a19 5fbd b38d b7bb
000003b0: b589 7f3d 5618 893d 5253 aa3c 9236 52be
000003c0: 54bd d93d 13af 953d 7c6b 1c3e c41e 2c3e
000003d0: 6a38 60be 404f b43d ff58 84bd 169e 7a3d
000003e0: be92 d13c fb92 d5bd 1acf 51bd b5a4 183e
000003f0: 6787 3ebe e9a6 c2bd d161 af3d aa98 0c3e
-0.020945529 -0.107208505 -0.03409211 -0.030617304 -0.031360142 0.026735641 -0.29455313 -0.112448126
-0.25114465 -0.0028277244 0.008566875 -0.17442831 -0.026641676 -0.036229905 -0.06091528 0.04029491
-0.23189221 -0.145624 -0.088943 -0.076276615 -0.06802247 -0.11270673 -0.031867158 -0.11162977
0.086425886 0.15335515 -0.09739246 0.1794216 0.00090235367 0.009800744 -0.06648887 -0.04312908
0.033008914 -0.104234405 -0.030973308 0.013242942 0.083800234 0.24317802 0.08665388 0.10907538
0.0012599108 -0.05698004 0.17188977 -0.05920472 0.030843023 -0.07209442 0.004512078 0.076103844
-0.10965379 0.09939343 0.17409244 0.10767139 0.14419961 0.080354355 -0.023653118 -0.07019737
-0.1394027 -0.00667339 -0.020554915 0.02627118 0.05872745 0.092783496 0.31002152 0.053396113
0.16335513 0.15941125 0.10057262 0.14189674 -0.09156701 -0.07133082 0.067874774 0.03802205
0.124052085 -0.023448525 0.05127491 0.20357014 0.18836527 -0.13296658 -0.17631659 0.029160112
0.020677052 -0.11009584 -0.20019862 0.05518397 0.06237985 -0.30221486 -0.2722827 -0.2010838
-0.12623075 -0.16663857 -0.26079497 -0.21721809 0.12076873 -0.027140178 -0.15053502 0.059454974
0.09985593 0.17220724 -0.07718685 -0.060334 0.27391732 0.28903514 -0.07652982 0.07092916
-0.026320254 0.1583881 0.08109042 -0.2174675 0.013179713 0.17480475 -0.24686843 -0.16715534
-0.11928055 0.1347997 0.07689274 -0.090353735 -0.11037858 0.28159302 -0.035247084 -0.070250675
0.13923343 0.26807764 0.20052552 0.01372603 0.12510101 0.14862505 0.06905571 -0.011184695
0.06539576 -0.13005662 -0.021623539 0.043371566 -0.1349933 0.08983246 0.08872003 -0.2019272
-0.3245455 -0.17889701 0.15076615 0.06864811 -0.16420418 -0.060038026 0.19167426 -0.06391033
-0.121932745 0.059757303 0.2427659 0.08047199 -0.013042909 0.04597036 0.082144015 -0.10254769
0.06825222 0.084659025 0.08012822 -0.10033167 -0.17568141 0.0031736314 0.032948434 0.015723402
-0.1651826 -0.25693148 -0.19656996 -0.08169685 0.07858564 0.033855718 -0.057187714 -0.19556373
-0.17103426 -0.15783907 -0.056607615 -0.038609974 -0.05131007 0.06866222 0.054290056 -0.057475083
-0.060140364 -0.123477764 -0.041007243 -0.07686786 0.031253878 -0.07505834 0.05735209 -0.04475239
0.031339027 0.013069825 -0.07029451 0.00830503 -0.06794181 -0.09415364 0.048629258 -0.14237243
-0.0065683806 -0.0030729726 -0.012355921 -0.09984311 0.066517696 0.059277613 -0.08724633 -0.07668938
0.058626596 0.093203396 0.15429237 0.103644095 -0.042683117 0.06060716 0.02391907 0.040267177
0.18841705 -0.0770082 -0.0064804466 0.11841885 0.14670177 0.10010815 0.18809676 0.16199687
0.019784817 -0.051537417 0.081007 0.101087324 0.1671231 0.03715834 -0.011517183 0.09990235
0.04392488 0.11910608 0.14479074 -0.15865408 -0.16941893 -0.013563585 0.19106084 0.1841604
0.054624762 -0.051588356 -0.054467715 -0.0056016087 0.062387187 0.06694095 0.020791683 -0.2052863
0.106318146 0.073087834 0.15275377 0.16808611 -0.2189652 0.08804178 -0.06462287 0.06118592
0.025582667 -0.10428425 -0.051222898 0.14906581 -0.1860634 -0.09504492 0.08563579 0.13730112

bias f4 [32]
00000000: 3179 23be 2202 173e be6f 163e 5977 a7bd
00000010: 3e63 413e b42a 69be 78b3 6abe 99c1 c53e
00000020: a9ff 5fbe 3d1f 5cbd 3bca c5bd 620b 913d
00000030: eb90 e23d 0cb3 64be 49f5 eb3d 3398 76bd
00000040: d6ec 4fbd 6e18 933d b78b 8c3e ebbc 22be
00000050: 3ed3 04be 65eb 1a3d 8954 adbe d472 d3be
00000060: 0027 a2bd a30c 2e3e 8cf0 d0be e968 4cbe
00000070: f797 edbd 9bea 22bd 1d42 e6bc 9936 bbbd
-0.159642 0.14746907 0.14691064 -0.08177061 0.18885514 -0.22770196 -0.22920024 0.38624266
-0.2187487 -0.05374073 -0.09657713 0.07082249 0.11062797 -0.22333926 0.11521394 -0.060203742
-0.050762974 0.07182394 0.27450344 -0.15892379 -0.12971207 0.037822146 -0.33853558 -0.41298544
-0.07917595 0.16997008 -0.40808523 -0.19961895 -0.116012506 -0.03977452 -0.028107697 -0.09141273

weight f4 [32, 32, 5, 5]
00000000: 3e26 1e3d 8f74 d33c 90a1 ad3c b102 c6bc
00000010: 6e34 27bd 45f7 223d 0ca5 273d a53f 3c3d
00000020: 8fb5 da3c ad70 be3c 5602 583d 9fbf 823d
00000030: 8cdc 5c3d 89dc ca3c 5457 4f3c fda0 6e3d
00000040: 9ee1 2e3d 335f aa3c 965b 753d 3389 9e3c
00000050: 3029 3b3c db5b 57bc ce1f e13c 6831 b43c
00000060: b851 b4bc 49bf 7b3a 54d0 9dbc 28d8 e4bb
00000070: 6d2a d8bc 28d2 22bd c508 d03d d29a 033e
00000080: 4549 b73d d394 533d 065f 813d 894f 8f3b
00000090: 31e3 aa3d 9f97 c03b 98a6 5eba 10ca 7bbc
000000a0: af53 793d 21dd 9f3c 257e 23bd 41e0 4d3c
000000b0: d7cc 0bbd d53a 72ba d218 07bd 3051 293c
000000c0: 3dbd f63c 9c4d dbbb 6583 cb3c b369 7b3a
000000d0: 1f31 e0bc 5326 9b3c 45bd e33b d6c0 163d
000000e0: d607 223d 887f 023d 3631 793b c996 523c
000000f0: 00d1 503d c046 273c 41bf 523b 8839 363c
00000100: 7f84 c9bc 5a59 8fba 1629 ecbb cca3 52bc
00000110: 6005 ed36 43d6 42bb 7d71 983b 5a37 3bbd
00000120: 7cc2 9bbd 8b91 34bb ffe9 8d3b 688e debb
00000130: 48b8 5f3c 799b 47bb ace3 dd3c 8daf 8cbc
00000140: 7240 2f3d 40b5 00bd e0db c9b8 b41c 833c
00000150: 7a58 113d 0be4 cdbc e718 28bd 110a bf3c
00000160: 29d2 26bd ca5e 83bb b853 e93c bee2 e0bc
00000170: 6fc5 61bb e586 e2ba 5df4 313d a6ee b8bc
00000180: face febc b5d4 423d fed7 01bd d250 353d
00000190: 96bc 04bc d82f 073d ced2 9abc bc04 b4bc
000001a0: ad14 833c d3cb 9f3c fa4d 1f3d f1b0 1cbd
000001b0: 902f d8ba 6aa5 ce3b 73e5 c2bb 75ed c0bc
000001c0: 9e98 453c 3f87 0bbd 4fdb a8bc e8f9 a5bc
000001d0: c90d f93c 6bc5 063c 35b1 89bc 3c0f 8a3c
000001e0: 07c8 3cbc 9b30 a03c d304 863c 6281 edbc
000001f0: c2bb 42bb d1ac a13c 467f 6e3c 48f6 c33c
00000200: b2a8 dd3b eb92 57bd 81b9 d83c c8df 783b
00000210: 88ab acbc 5160 3dbd ee45 85bd 7154 fa3b
00000220: c74e 793d f4cd 693d 151b 9abc f812 febc
00000230: 7aec 7dbc 33eb 453d 9d4e 193d d8ad aabc
00000240: 1889 8cbc b468 dabc 9c7c 713d 86a4 5c3d
00000250: fe39 333b b069 2c3d 2822 95bb bd26 69bd
00000260: 863d 5ebd 405e 80bc 00f6 81bd e0d1 0d3d
00000270: 7e28 1d3d c081 0dbd cc04 0f3a 1a3d ccbb
00000280: 3125 e23c 79d4 0c3b 636c d0bc 74c1 a5bc
00000290: 626f 6cbc 41c6 3d3d e46d 5b3c b037 063d
000002a0: d782 b23c 6a76 8d3d 7cc9 01bd 759d fc3b
000002b0: 1bc4 3ebd 0583 073b a66e e73c 727a 353c
000002c0: b569 943d f401 653d dd5c 203d 0f30 be3d
000002d0: 0bbc c13d afa6 693d be8b 993c c6d6 cf3b
000002e0: b53e 453d 0169 783d 7cef 07bd 2bec 2fbd
000002f0: c271 143b 1196 debb c693 39bd bf0e d0bd
00000300: e035 9339 abd3 82bd 8371 46bc edc0 41bd
00000310: cc30 d8bd 1cf1 45bd 60b4 ecbc c1ad 2cbd
00000320: 36b0 af3c 37bc cfbb 2f36 3ebd 56d5 d0bc
00000330: 9b36 b7bc f39e a43d ef90 6a3d 326d 0dbc
00000340: 76fb e13c d76e 423d f9a3 593d 5877 953c
00000350: c047 06bc 1db2 c13c 7e2d dc3c fc80 243b
00000360: 9ff6 c13c c8ce 08bd ae6b c13c 75ad 14bd
00000370: fca7 e63b 558b 16bd 1d9a 6bbd 7f9b c2bc
00000380: df34 e93c 3c2a fb3c 36bc ed3c 199e b03c
00000390: a8fd e8bc 8cd3 0ebd f58f 073c 69b0 ae3d
000003a0: aacc 00ba 7072 983b 192e a8bb 0452 313d
000003b0: 65c7 3f3d 4a5b abbb d5b5 f6bb 5be5 34bc
000003c0: ba37 943c b826 f33c 4ef2 3bbd 3798 063d
000003d0: 8f38 fabb d986 8aba fc3c 2a3c 8b28 22bd
000003e0: 44e0 09bc 6573 e4bb e0fe 2a3d 3ecf f53c
000003f0: 4203 093d cff6 d3bc 7589 ac3c 74fb 5cbc
0.03861069 0.025812415 0.021195203 -0.024171205 -0.040821485 0.039786596 0.040928885 0.045959134
0.026697902 0.023247087 0.052736603 0.06384205 0.053921267 0.024763362 0.012655098 0.058259
0.042695634 0.020797348 0.059901796 0.019352531 0.011423394 -0.013144459 0.027480986 0.021996215
-0.022011623 0.0009603394 -0.019264378 -0.0069837756 -0.026387418 -0.039751202 0.10157923 0.12852028
0.08949522 0.0516556 0.063169524 0.004373495 0.083441146 0.0058774496 -0.00084934523 -0.015368
0.060870823 0.019514622 -0.039915223 0.012565673 -0.034130897 -0.0009240334 -0.032982655 0.010334298
0.030119533 -0.0066926014 0.024842927 0.00095906405 -0.027367173 0.018939173 0.006950053 0.036804996
0.039558254 0.031859905 0.0038023717 0.012853333 0.050980568 0.010209739 0.0032157453 0.011122115
-0.024599312 -0.0010936663 -0.0072070463 -0.012856435 7.063776e-06 -0.002972976 0.0046522007 -0.045707084
-0.07605454 -0.002755257 0.004330873 -0.0067918785 0.013654776 -0.003045766 0.027086101 -0.017173553
0.04278607 -0.031422853 -9.625382e-05 0.016004898 0.03548477 -0.025133153 -0.041039374 0.02332023
-0.040727768 -0.0040091025 0.028482303 -0.02745187 -0.0034449955 -0.0017282633 0.043445934 -0.022574734
-0.031104553 0.047566134 -0.031700127 0.04426653 -0.008101603 0.03300461 -0.018899348 -0.021974914
0.01600107 0.01950637 0.038892724 -0.038254682 -0.0016493667 0.00630634 -0.0059477626 -0.023550728
0.012060313 -0.034064528 -0.020612387 -0.020260766 0.030402081 0.008225779 -0.016808132 0.016852967
-0.0115223 0.019554427 0.016359722 -0.028992359 -0.0029713963 0.019735726 0.014556712 0.023921147
0.006764495 -0.052630346 0.026455643 0.003797518 -0.021077886 -0.046234433 -0.06507479 0.0076394607
0.060866144 0.057081178 -0.018811742 -0.031014904 -0.015498275 0.048320007 0.037428487 -0.020834848
-0.017155215 -0.026661254 0.058956727 0.05386784 0.0027347798 0.04209298 -0.004551191 -0.05692171
-0.054257892 -0.015669942 -0.06345749 0.03462398 0.038368694 -0.034547567 0.0005455732 -0.00623287
0.027605625 0.0021488948 -0.025442308 -0.020233847 -0.014430853 0.046331648 0.013392899 0.03276795
0.021790905 0.06907351 -0.03168629 0.0077092 -0.04657374 0.002067746 0.028251003 0.0110765565
0.072467245 0.055910066 0.03915106 0.0928651 0.094596945 0.057043727 0.018743392 0.0063427417
0.048155505 0.060647015 -0.033187374 -0.042949837 0.0022650813 -0.0067927917 -0.045306943 -0.101590626
0.00028078165 -0.06388029 -0.012112024 -0.04730313 -0.10556182 -0.048325643 -0.028894603 -0.042157892
0.021446329 -0.0063395756 -0.046438392 -0.025492352 -0.022364905 0.0803813 0.057267126 -0.008631991
0.027585726 0.047468986 0.053134892 0.018245384 -0.0081958175 0.023644501 0.026877161 0.0025101295
0.023677168 -0.033400327 0.023610916 -0.036298234 0.0070390683 -0.03675397 -0.05752002 -0.023755787
0.028467594 0.030659787 0.02902041 0.021559762 -0.028441265 -0.034869716 0.008274068 0.08529741
-0.000491331 0.004652314 -0.0051324484 0.043291107 0.046821017 -0.0052293884 -0.0075290003 -0.011041011
0.018092979 0.029681548 -0.045885377 0.032860007 -0.007636137 -0.0010568752 0.010390516 -0.039589446
-0.0084152855 -0.006971764 0.041746974 0.030006047 0.033450373 -0.025874523 0.021061638 -0.0134876855

bias f4 [32]
00000000: c408 87bd 90e1 5bbd f39a e1bd 3cb1 31be
00000010: 7f55 9cbc de79 8bbd aad3 75bd 19a5 32be
00000020: 3422 f2bd 900e 283c 08e5 15be bf83 69be
00000030: ea71 073d e232 f4bd 6047 03be 9c02 f2bc
00000040: 6a19 73be 2d56 fabd a01e e5bd 1bb5 74bd
00000050: 4370 1fbd 1c3d 41be 215a d33c 02d8 b8bd
00000060: 74a1 4cbc 93ab e0bd 9f66 8c3d 91ff 20bd
00000070: 80bd e6bd f470 00be a958 0b3d 7393 1bbe
-0.06593469 -0.05368191 -0.11015882 -0.17352766 -0.019083736 -0.06810354 -0.06001631 -0.17445792
-0.1182293 0.010257378 -0.1463815 -0.22804163 0.03306762 -0.119237676 -0.12820196 -0.02954226
-0.23740163 -0.12223468 -0.11187482 -0.059743028 -0.03892542 -0.18870968 0.025799813 -0.09025575
-0.012489665 -0.10970225 0.06855511 -0.039306227 -0.11266613 -0.12543088 0.0340201 -0.15192966

weight f4 [64, 32, 5, 5]
00000000: 816f b43c 33ac 66bc cdf9 933b 0e44 19bc
00000010: daf5 a8bb 481f 80bc 53b2 e13c 27a6 93bd
00000020: 55ba 3e3d 64e3 4d3c 4dbc 373d f6ca e2bc
00000030: 60a0 4bbd 0756 903b 6147 19bb 0274 1abc
00000040: 171f 84bd 93f5 76bd fca1 b0bb 6686 1dbd
00000050: 4f29 bc3c 290e b0bc ea79 373c 966f b3bc
00000060: 98e1 19bc 3076 223d 61aa 1b3c ec6e f93c
00000070: fc18 ab3d 832f 893c cb48 a1bb a751 78bc
00000080: 324c f6b9 acb9 a9bb 1be4 0abc 3b2d 383d
00000090: 7c0b a8bb 99fe e6bc ac08 39bd 9a79 bd3b
000000a0: e62f 04bb 403b 913d ac71 95bc 5e16 1cbd
000000b0: 8b1e 873c e33f edbc 0ee7 fb3c d5d5 8dbd
000000c0: 11c2 7bbd f593 cd3c 1c89 f33c f477 033d
000000d0: ee0f 16bb aac3 81bc 7862 58bd 63b5 16bd
000000e0: fc3d 75bd 74d7 62bd f2a1 32bd a9d4 5cbd
000000f0: b44a 933c e5fd f7bb 99d1 8cbd 02b3 e5bc
00000100: eac5 fbbc cae4 213d 7fa9 4c3c ccb5 9dbc
00000110: c1e6 c0bc 66b4 83bc 1a18 29bd 19a3 98bc
00000120: 0d48 ecbb 7e52 18bc c368 04bd 140f 643d
00000130: 2eab 22bd d967 d73c 5a2c 933d ad56 28bd
00000140: 2ce9 253d a11b e1bc fdfa e7bb fb64 253d
00000150: 12fa 0ebd c4d6 073c 8c1e 63bd ada9 aabc
00000160: ceef 9d3c 4664 ce3c 9d4c 4dbd ee30 9ebb
00000170: 92a8 893c 5f24 68bc 40d5 3abd 7dfa b4bc
00000180: d2e1 f8bc e023 cb3b 6af1 8dba bebe 74bb
00000190: 2ab7 c0bc 1d71 d7bb de1c d9bc bb6c b93a
000001a0: e7bd 503b 7c43 14bd 4c4b 453c 29f3 07bc
000001b0: 8705 4b3c 4205 0b3d 705b afbc b53e 4f3c
000001c0: a6a6 12bd 1bb8 cebc 5c61 a8bc d2c8 ad3b
000001d0: 7fdd 8c3b 8124 0fbc 0dc9 0b3d d32f 233b
000001e0: 3d0c 263d a0c6 9a3c c92a 3abd 1198 20bd
000001f0: 2b8b 3ebd 1e39 5e3c 4e65 0fbd 90f6 deb9
00000200: 4105 89bd 0fb3 eebc 395d 133d 9ea7 1ebc
00000210: 2434 8a3c 8a3b e13c 0b63 ba3c dc1a 553d
00000220: 795d de3b b0d2 063c e396 cabc b7e5 023c
00000230: 27fb 853d bc4c c43b 738a 31bd 58a4 bebd
00000240: 359d 41bd b7f6 893d c710 7d3c a4bc e93c
00000250: af54 64bd 07ae d6bc 1a04 0fbd 0220 bb3c
00000260: bdee 3abd fada 9d3c ac7b 6abc d41a 9b3d
00000270: 1695 d43c 1fa9 ddbc f343 373d caa0 aabb
00000280: 7d71 7a3d e684 173d 996e 223c 8c35 993b
00000290: 4f04 233c 12a3 5ebd 5a8f fabc eab0 1e3c
000002a0: 94da 123d f5db aa3d 84b7 9c3c 3a7e 48bd
000002b0: 3b9d 42bd 83ef 843c 5e18 5f3c c17d 903d
000002c0: 5cf0 5e3d b4a6 e83b 0172 d73d 6f74 7f3c
000002d0: d9be 163d 69ed 8e3d 7972 3fbd b0da 023d
000002e0: 6264 073d a374 e8bc 801b 993c 1e85 20bc
000002f0: c1e5 ba3c b72f 083d 965b b8bc dc3e 59bd
00000300: f2a9 3dbb ef4b 623d 7076 28bd 52a3 8cbc
00000310: 6d03 cb3b 21fe 07bd 1eb5 a53c 0829 0bbc
00000320: d534 803a 0dfd 6dbd b5d7 41bd 7ff5 c33c
00000330: 739e fabc 2388 8f3a e259 0cbd 97ac 18bd
00000340: bfef 6f3d f694 19bd b182 acbc 6e9f 42bb
00000350: 75b7 b1bb c128 0b3d 0a32 a33c 2d07 8c3b
00000360: 4ede 80bd 902e 10bd 9359 7a3c 22c9 8aba
00000370: 0fed e93b 6d7b c9bc bfee 03bc 5021 6bbd
00000380: bdd1 b0bb be0f 33bc 85c9 d8bb 741e 89bd
00000390: bc26 363c bc14 ac3c 6ca0 c83c e3e8 183c
000003a0: a2e6 4ebd 4a27 163d 83e4 cd3c 4266 b1bb
000003b0: 7e99 28bc 6d28 aabc 3fe3 2bbb c63d 9ebc
000003c0: 1794 e33c 6f18 0bbd c46c 54bd 8d5c be3a
000003d0: 0603 133b 26c4 e43c 0af1 69bc b3b4 e5bc
000003e0: 4d44 4e3c ae64 a23c cbc9 33bc 8bd4 e93c
000003f0: 5628 113d b24e f0bc 25cf 48bc d3ad dbbc
0.022025825 -0.014079141 0.0045158626 -0.009354604 -0.005156261 -0.015639916 0.027550852 -0.072094254
0.04656442 0.012566421 0.044857312 -0.02768467 -0.049713492 0.0044047865 -0.0023388492 -0.0094270725
-0.064512424 -0.06029279 -0.005390404 -0.03845825 0.022968916 -0.021491127 0.0111985 -0.021903794
-0.009392165 0.039663494 0.009501071 0.0304484 0.08354375 0.016746288 -0.0049220077 -0.015156186
-0.00046977546 -0.0051796045 -0.008477236 0.04496501 -0.005128322 -0.028197573 -0.045174286 0.0057823183
-0.0020170151 0.07091379 -0.01824268 -0.03810727 0.016494056 -0.028961128 0.030749824 -0.06925551
-0.061464373 0.025094965 0.029728465 0.032096818 -0.0022897678 -0.01584037 -0.052828282 -0.036794078
-0.059873566 -0.055381253 -0.043611474 -0.053913746 0.017979957 -0.0075681084 -0.06875915 -0.02803946
-0.030734021 0.03952483 0.012491583 -0.019251727 -0.023547532 -0.016077232 -0.04128275 -0.018632459
-0.0072107376 -0.009297011 -0.03232647 0.055678442 -0.03971403 0.026294636 0.07186194 -0.041098285
0.040505573 -0.027478995 -0.0070794807 0.040379506 -0.034906454 0.00829095 -0.055449054 -0.02083286
0.019279387 0.025194298 -0.050121892 -0.00482761 0.016804013 -0.014168828 -0.045613527 -0.022092098
-0.030381117 0.006199345 -0.0010829393 -0.0037345137 -0.02352484 -0.0065747635 -0.026503023 0.0014146784
0.0031851472 -0.03619717 0.012041878 -0.00829772 0.012391455 0.03394056 -0.021405905 0.012649228
-0.03580346 -0.025234273 -0.020554237 0.0053034807 0.0042988653 -0.008736731 0.034127284 0.0024900332
0.040539015 0.01889354 -0.04545096 -0.03920752 -0.04651944 0.0135634225 -0.03500872 -0.00042526843
-0.06690455 -0.029138116 0.035977576 -0.009683518 0.016870566 0.02749421 0.022752305 0.05202757
0.006786045 0.008228943 -0.024730152 0.007989339 0.06542044 0.0059905928 -0.043344926 -0.0930869
-0.047269065 0.0673651 0.015445895 0.028532334 -0.055744823 -0.02620603 -0.03491602 0.022842411
-0.045637835 0.019269455 -0.014311712 0.075734764 0.025949996 -0.027058182 0.044742536 -0.005207156
0.061143387 0.036991976 0.009914064 0.0046755727 0.009949758 -0.054354735 -0.030585933 0.009685734
0.035852984 0.08342735 0.019130476 -0.048948504 -0.047513228 0.01622749 0.013616649 0.07055236
0.054428443 0.0070999507 0.105197914 0.015591725 0.0368031 0.06978876 -0.04674003 0.031946838
0.033054717 -0.02837593 0.01868987 -0.009797363 0.022814633 0.03324863 -0.02250461 -0.053038463
-0.0028940407 0.055248197 -0.041128576 -0.017167721 0.0061954767 -0.03320134 0.020227965 -0.008493669
0.000978137 -0.058102656 -0.047324855 0.023920773 -0.030593133 0.0010950606 -0.034265406 -0.03727397
0.05857825 -0.037495576 -0.021058412 -0.0029697078 -0.005423481 0.033974413 0.019921321 0.0042733164
-0.06292401 -0.035200655 0.015280145 -0.0010588507 0.0071388553 -0.024594987 -0.008052527 -0.057404816
-0.0053960965 -0.010929046 -0.00661582 -0.066952616 0.011117633 0.02100598 0.024490558 0.009332868
-0.050512917 0.036658563 0.025133377 -0.0054138014 -0.010290502 -0.02077123 -0.0026227979 -0.019316565
0.027780576 -0.03395885 -0.05186154 0.0014523432 0.0022432222 0.027925562 -0.01427866 -0.028040266
0.012589526 0.019823398 -0.010973404 0.028543731 0.035438858 -0.0293344 -0.012256418 -0.026816284

bias f4 [64]
00000000: 4760 95bc 329a fbbd ae9c f2bd c974 18be
00000010: 92b5 17bd 98f9 93bb 0ea5 bebd c32e 45bd
00000020: 1621 0abd cc8d 92bd 4959 a4bd b7bc 62bd
00000030: 8059 85bd c78a 8cbc 787c b9bd 0c88 93bc
00000040: a7a0 33bd 5c6a 73bc 7b36 7dbc ad1f f9bd
00000050: 8c07 b5bc 69f5 9bbd 4eb9 02be f4b6 6abd
00000060: 76b4 79bc 0f28 97bd b60c 5bbb 0716 87bd
00000070: 0101 48bd 9bea 723d c46f 473c 35c7 b7bd
00000080: ff33 78bc 23c3 ebbc 4d0d 69bd 5705 96bd
00000090: 86c8 7abd b6db 88bd d3af 11be bb6c e8bc
000000a0: 9334 8abc aabd 06bd 8381 a53b 757a 92bd
000000b0: dbea 7fbd 25ce 6bbd 7aae e9bb fdd1 26bd
000000c0: 4f46 b1bd 6fa0 26be 40a5 1ebd 135b abbb
000000d0: 3489 40bd a480 8dbd 0991 b53c 7276 e1bd
000000e0: 4ffd adbc 6e85 babd 6030 2bbe 6ece 1bbd
000000f0: 081d 9cbd 9327 5ebd fdb4 0bbd 51a6 96bd
-0.018234385 -0.1228527 -0.118462905 -0.148883 -0.037038393 -0.004515838 -0.093088254 -0.0481403
-0.03372296 -0.07155952 -0.08024842 -0.055355754 -0.065112114 -0.017156018 -0.09056944 -0.018009208
-0.043854382 -0.014856901 -0.015454884 -0.12164245 -0.022098325 -0.07615168 -0.12766 -0.057303384
-0.015240779 -0.073806874 -0.0033424324 -0.06595998 -0.048829082 0.05930577 0.012172643 -0.089735426
-0.015149116 -0.028779572 -0.05689745 -0.07325237 -0.06122639 -0.066825315 -0.14227228 -0.02837216
-0.016870772 -0.03289572 0.0050508394 -0.07152263 -0.062479835 -0.05756964 -0.007131395 -0.040727604
-0.086559884 -0.16272138 -0.038731813 -0.0052293628 -0.047005847 -0.06909302 0.022163885 -0.1100892
-0.021238951 -0.09107481 -0.16717672 -0.038038664 -0.07622725 -0.05423696 -0.03410815 -0.07355941

weight f4 [64, 1024]
00000000: e633 34bc c495 a93c 745a 253d d324 09bd
00000010: 350b 963c facb c93b 2d83 ba3b fdbe 57bd
00000020: bf08 e8bc 113c 85bb 13ec 423c deb3 1fbd
00000030: 750b 6a3c 52ab b2bb d75c bcbd b525 8abc
00000040: 68c8 17bc c16d b6bc 694a 4cbc 340c 42bd
00000050: 8333 ec3c e4be e03c c999 8dbc 0794 9cbd
00000060: d320 d73c 4d5d b0ba e85b 8b39 5331 40bb
00000070: c158 a33c eea4 8b3b 9348 0f3c 95e5 3abc
00000080: 2a73 c33a 48d3 59bc 56f6 36bd d24e 4cbc
00000090: 091f c83c d87f b9bd 2030 b3bd 398f 423d
000000a0: 98b8 d7bc a707 6f3d bc62 36bc 2df5 fb3c
000000b0: e0c8 e8bc b659 8fbb 9b7c 8b3d 684b a23b
000000c0: c8c2 cebc f570 afbc 9de0 33bd 2199 afbb
000000d0: 9890 e2bc 44b3 693a 20e5 71bd f506 843c
000000e0: b818 f0bb bdf4 ec3c 8371 3cbd 2da7 dbbb
000000f0: 5173 4a3d 5cf9 b9bc 571b 523d 3a32 bcbc
00000100: 3c53 383d 9206 16bc aba6 88bd 0633 f5bc
00000110: 7222 9cbc 6969 70ba caff 8cbc 6180 df3c
00000120: f2f8 a3bc 4d5e 10bd 3494 21bd e579 8fb9
00000130: e47f 90bb 0f5f 8abc d4bf 363d 84b8 233d
00000140: 8176 c0bb ced3 f6bc 2521 b93a a587 9fbb
00000150: 2e6a 5d3d e173 a03d 5178 893b 4399 e83c
00000160: 30b7 ffbc 4556 9ebd 312c 0b3d c03b 583c
00000170: 383a 88bc 9b30 c8bc 4885 1dbd 1fee f3bc
00000180: 04f3 373d 7dba 3b3d 65ee 063d a54c 40bc
00000190: 3b01 893b 6d2d 21bc b9fb bb3c 3884 d63c
000001a0: d69e 18bd 6db5 19bd c0c7 88bd ec00 933c
000001b0: 1e8f 3fbc 227b 623b 0577 593d a387 453d
000001c0: fb8c 4cbb 39e0 9d3c 10d1 823c affc b33b
000001d0: 5391 efbc 52b4 a538 8003 17bd 4cdd 04bd
000001e0: cb55 c4bd 9a83 e83c 2805 f5ba f08a f8b8
000001f0: b7b3 febc 3f03 0b3c e472 d33c e8a7 49bd
00000200: 90ce de3b 8871 973d 17ba 323d b51d 3d3d
00000210: 3af6 c1bc b7a8 6e3c 45bc 0bb9 b845 de3b
00000220: 209d fabc d06a 20b9 dc05 dabc 1a5d b23c
00000230: 18f3 60bd ac45 c53a 13da 91bb d3f1 1bbc
00000240: 136b f9bc 49d1 213c dd82 4dbd 8827 1bb7
00000250: 8a4b 3abd b8ca 5f3d 459b df3c dcb5 253b
00000260: 1d50 81bd 4f9f 2db9 f0d7 8d3c 2930 cfbc
00000270: d2f3 85bd fe0c 54bc e22f 8cbd c290 c7bc
00000280: 99de a03c b1b7 033d 31ae c13c 0ada 833b
00000290: cdf9 eb3c e38c 5cbd c059 24bd 737d 93bd
000002a0: 553d 80bd 565c dfbc e511 dcbb a637 0dbc
000002b0: a553 123d 245c 1e3d 6b71 313d 3786 043d
000002c0: 9140 913d b558 71bb e865 4e3d ade1 ab3b
000002d0: c75a c73c 3b46 c63c 1e1e a13b 4f2d c5bc
000002e0: 938d 0f3d 6642 0fbd 7458 c5bc 0a8b 23bc
000002f0: 7834 24bc aedd b73c 26a0 b03c aafe 84ba
00000300: 7a87 41bd afda 173b c639 cfbb 7e0b 0fbc
00000310: f107 fdbc 211e 333d db76 c2bc 2b82 73bd
00000320: 3c54 cebd d6cc 833d 2c86 a03d eef8 e1bc
00000330: ff4b f4bb 60b4 acbc 0f33 acbb b637 97bd
00000340: bb72 06bd 5235 9ebd 347b 783d f006 1fbd
00000350: 6da2 43bc a166 273d 4c07 c23c bd56 103d
00000360: 4b3d dfbc c046 533b 4136 7cbc 1d95 ee3c
00000370: ef04 97bb 398c b2bb 68a8 933c e483 983c
00000380: 5626 0abc 1efb 1b3c e2e2 503d 554d 10bd
00000390: b069 903c ff0a 00bb 408f 143d 964a 493c
000003a0: 25d3 853c 0259 63bc 1ab1 a03c bc69 633d
000003b0: dff9 4e3d 2dee 3bbd 7c37 0abd 120d c53b
000003c0: 974f 2abb 67d7 cbbc 7878 dabb 0edf afbc
000003d0: cfb7 133c 7761 833d c45f bf3b 76e5 93bc
000003e0: d9f4 423d 7c3d 31bd 18f0 ca3a 186c 1b3d
000003f0: d29f 843b 48c1 89bd 6dd9 1abc ba03 283b
-0.010998702 0.020701297 0.040369466 -0.033482384 0.01831589 0.006158349 0.005691907 -0.052672375
-0.028324483 -0.0040659984 0.011897105 -0.038989894 0.014284958 -0.005452552 -0.09197395 -0.016863683
-0.009264089 -0.022269132 -0.012468913 -0.04737492 0.028833156 0.027434774 -0.017285245 -0.076454215
0.026260769 -0.001345554 0.00026580621 -0.0029326275 0.019939782 0.0042616045 0.00874533 -0.011407276
0.0014911641 -0.013295002 -0.044668518 -0.012469964 0.024428861 -0.090575874 -0.087494135 0.04749987
-0.026333138 0.058356907 -0.011131939 0.030756557 -0.028416097 -0.004374708 0.06810876 0.004952837
-0.025239363 -0.021416167 -0.04391538 -0.0053588306 -0.027656838 0.0008914957 -0.0590564 0.016116599
-0.0073271655 0.028925294 -0.04600669 -0.0067032785 0.04942638 -0.022701912 0.051295605 -0.022973169
0.045001253 -0.00915684 -0.066724144 -0.029931556 -0.019059394 -0.0009170981 -0.017211813 0.027282896
-0.020016167 -0.035246182 -0.03944798 -0.00027365904 -0.004409777 -0.01689103 0.044616535 0.03997089
-0.0058735018 -0.030130293 0.0014124258 -0.004868465 0.05405634 0.07834602 0.004195251 0.028393393
-0.03121528 -0.07731298 0.03397769 0.013197839 -0.016629323 -0.02443724 -0.038457185 -0.02977663
0.044909492 0.045832146 0.032942194 -0.0117370235 0.004181055 -0.0098374905 0.02294718 0.026186094
-0.037260853 -0.037526537 -0.06678724 0.017944776 -0.011691837 0.0034558256 0.05309202 0.048225056
-0.003121196 0.019271957 0.01596883 0.0054927687 -0.0292441 7.9014004e-05 -0.036868572 -0.032437608
-0.09586676 0.028383065 -0.0018693553 -0.00011851441 -0.031091554 0.008484661 0.02581162 -0.049232394
0.0067995265 0.07394701 0.0436345 0.04617091 -0.02367698 0.014566592 -0.00013326209 0.0067832135
-0.030592501 -0.0001529858 -0.026614122 0.02177291 -0.054919332 0.0015050671 -0.0044510453 -0.009518105
-0.030446565 0.009876558 -0.05017363 -9.247924e-06 -0.045482196 0.054636687 0.027295718 0.0025285399
-0.063141085 -0.00016557913 0.017314881 -0.02529152 -0.06540646 -0.012942551 -0.068450704 -0.024361018
0.019637393 0.032157604 0.023642631 0.004023795 0.028805638 -0.053845298 -0.040124655 -0.07201662
-0.06261698 -0.027265709 -0.0067160004 -0.008619225 0.0357243 0.03866209 0.043321054 0.03235456
0.07092393 -0.0036826555 0.050390154 0.0052454085 0.024335278 0.02420341 0.0049169203 -0.024069456
0.035047125 -0.03497543 -0.02409003 -0.00998188 -0.010022275 0.022444572 0.02156074 -0.0010146697
-0.04724834 0.0023171117 -0.006324026 -0.008730767 -0.030887576 0.043729905 -0.023738315 -0.05945031
-0.1007466 0.06435554 0.07838091 -0.02758452 -0.0074553485 -0.021082103 -0.00525511 -0.07383673
-0.03282426 -0.07725014 0.06066437 -0.038824975 -0.011940581 0.04086936 0.02368512 0.03523897
-0.027250906 0.0032238215 -0.0153937945 0.029123837 -0.0046087424 -0.0054488447 0.018024638 0.018617578
-0.008431992 0.00952032 0.050997622 -0.03523 0.01762852 -0.0019537804 0.036269426 0.012285849
0.016336033 -0.013876202 0.019615699 0.055520758 0.050531264 -0.04588144 -0.03374432 0.006013521
-0.002598738 -0.024882985 -0.006667193 -0.021468665 0.009015991 0.06415074 0.0058402736 -0.018053751
0.047596786 -0.043271527 0.001548293 0.037944883 0.0040473724 -0.067263186 -0.009451252 0.0025636987

bias f4 [64]
00000000: a0bf 873c 80f6 b53a 5d1e 153b 14e6 e4bc
00000010: 40f6 223c 44e1 853c 2ae5 42bc 11ac 6ebc
00000020: 274a 743c d94e 56bc a41d 2c3d 7ba3 753c
00000030: 31ab 093c b5f0 48bc 0f00 63bc a0b4 0d3d
00000040: 7e6f 43bd a7b2 15bd cd47 0c3d 9887 c4bd
00000050: adeb 8d3b b21b b63d 735b 4abc 1702 34bd
00000060: 453d bc3c c6ee f1bc 1037 0f3d ce1b 41bb
00000070: 19c7 35bd 11c5 d9bc 170b a2bd ce7f cf3b
00000080: 1ce0 363d 1a23 84bd 0ad0 06bd bcd0 fcba
00000090: 47d2 18bc 38f6 b1bc 3eac b5bb 5e53 ad3d
000000a0: e3d0 a1bc e4be 9e3c 701d 683c 67ea 03bd
000000b0: d3c8 123d 9670 293d 0b26 a23c 06c4 03bd
000000c0: 2f26 8fbd ff89 093c 0b0a 803d ef01 f73b
000000d0: 2ffe 98bb e1bd 96bd 7d31 1cbd a4f6 f53c
000000e0: 7e0b 3bbc fed8 533c 1d3b e03a c696 dd3b
000000f0: 5dc6 af3a 69e6 f1bc a18f 6f3c b8d2 843b
0.016570866 0.0013882667 0.0022753694 -0.027941741 0.009946406 0.016342767 -0.011895457 -0.014567391
0.014910257 -0.013080322 0.042020455 0.01499259 0.008402632 -0.01226442 -0.013854994 0.034596086
-0.04771375 -0.03654733 0.034248162 -0.09596175 0.0043310733 0.08892001 -0.012350905 -0.043947306
0.022978434 -0.029532801 0.03496462 -0.0029466036 -0.044379327 -0.026583226 -0.079122715 0.006332374
0.04464732 -0.064520076 -0.032913245 -0.0019288282 -0.009327478 -0.021723852 -0.0055442145 0.08463167
-0.019752925 0.019378133 0.014167175 -0.032205965 0.035836052 0.041367136 0.01979353 -0.032169364
-0.06989705 0.008394717 0.062519155 0.0075380723 -0.004668973 -0.07360435 -0.038133133 0.030024834
-0.011416314 0.012930153 0.0017107461 0.0067623584 0.0013410557 -0.029528813 0.014621646 0.00405344

weight f4 [10, 64]
00000000: f289 ccbe c2a2 3bbd 3ca1 adbd b962 243e
00000010: 7a82 98be 93f4 ae3c 6fd8 65be 55bc 92bd
00000020: 655a 48bd feaf bbbd 8d84 24be 20fe 923d
00000030: 3f12 a93e 65df f13c 04ff 9a3d 910f 0abd
00000040: ada4 8a3e 94dc 3d3e 58b3 a8be 20dc 6e3e
00000050: f573 d33d 2812 a5bd 474f 2f3e 89d3 f13d
00000060: 3fff b2bd 6986 1a3e 00ca 98be 0f09 2b3e
00000070: 2cbf 7f3e 9223 24bd d069 5f3e 6530 dfbd
00000080: 58bd a0be 2d83 f6bd d5b6 1d3e 0a0e 3e3e
00000090: b609 993e bdb5 833d e3f5 0e3d df97 88bc
000000a0: 8c75 6f3d 62ef 22be 8135 cfbc 2866 943e
000000b0: 4531 f2bb d2bf a9bb e0c1 e23c d1c9 bbbd
000000c0: f0f4 f6bc 195f fd3d cad4 88be b373 87be
000000d0: 986d 313e 7fe2 cdbd 567b 85bd 9092 93be
000000e0: 4f0e 0f3e e310 67bd e3ce 833e 4888 b43b
000000f0: 8a47 19be 180a 483e 8776 d43d 453b 93bd
00000100: 00ea 01bc 780a 923e bd09 eabd aafc 753d
00000110: 9540 cbbc 6bfb fc3d 000e 4ebb 86c5 1a3d
00000120: 0d99 5bbe 603a 473e ebe0 dd3d 4c72 5bbe
00000130: 16c7 91bd 9f7c e3bc feea 133e aed6 da3c
00000140: f27a 833e cfbd 03be 976a 083d 828a 883e
00000150: 5712 033e a2a7 24be 9e58 83be 3726 6cbe
00000160: f91b d53d 44d8 3a3e 15f9 333d 1832 a13e
00000170: 1f26 173e 4909 09be 1432 833e eaf6 bf3e
00000180: f9d0 1fbe cbab 023d a158 b9be c4c1 57be
00000190: e932 333e 91fb 93bc 7a79 303e 3951 acbe
000001a0: c080 28be ce29 3bbe c9ed e5bd 1c6b 4c3e
000001b0: 77d1 1dbc a090 bfbe 4112 d23e 0759 bb3e
000001c0: ba78 3d3c de00 313d 8406 28bb dbfd 30be
000001d0: e684 8abe 6cdb e83d b6ca 4d3d e714 b33e
000001e0: f41d 28be f216 493e f25b a6bc d227 993e
000001f0: 93d7 823e 4dfb c0be fa4a 61be 386a 8d3e
00000200: db73 bd3d 37de 443e c590 52bd d917 c3be
00000210: 6efe 363c 15b7 023e 34d3 3a3d 9795 1a3e
00000220: 66ea cd3d 4f34 5abe 01f5 56be 0a9f 30be
00000230: b2d2 833e b8b0 953d e05d 8ebd b651 8fbe
00000240: 60eb 66bd 94bd 0abc 53a3 9dbd 047b 463e
00000250: 1608 483e 51a6 d33e 149b d63c 1a04 983d
00000260: 26cb 8ebe e34a fdbc 30a1 ec3d 56e9 583d
00000270: d691 313e 3b79 643e bee6 6e3d 2f5f 4fbe
00000280: 38ec 2b3e c2d0 1ebe 80cd 56be b5a1 07be
00000290: 0b80 98be 8daf f6bc ce71 bfbd 71f3 b83d
000002a0: dc49 783e 29db d1bd 39a5 c8bd 63fc cebd
000002b0: 4f5a 7c3e 550a a93e 785f 43be c556 0bbe
000002c0: 6475 843c 0b05 723d 074c 0b3e 975e 2cbe
000002d0: 45ea 2d3d 7c48 63bd 16e8 2abc 3d9b 8ebb
000002e0: f619 f93d eb4c a5be 81dc 8d3d d54c 79be
000002f0: 5a17 9bbd 6941 653e a578 9b3e 9003 c83d
00000300: 3a7f 863e 54f5 0a3e bcd7 5a3d c7f1 f8bd
00000310: fd76 edbd 534c 643d e605 413e 6f8b 1cbc
00000320: fe13 003e 7f56 03bd 481d bd37 7a6f 763e
00000330: 68e9 dbbd 44b5 24be dbc2 26be 35d9 3d3c
00000340: 1b9a 0fbe 35fb b4bd d7e3 5a3e 1ffd f4bd
00000350: 2c3c 6abe 2708 773a 2699 bfbd 3a5e 903e
00000360: 1652 073e 3635 bcbc ecac 1dbe 7e55 ef3d
00000370: 7086 693d 64d3 20be f1b4 e1bd 9113 24be
00000380: da7d 85bd 4ede 1abd 915f 3e3e d4cf 933d
00000390: eaab 2fbe d008 9c3d 4c3f 09bc bbe5 a43c
000003a0: d03f 6ebb 17a1 b23e e497 003d d819 2abe
000003b0: c9aa 203e 3d86 5e3d c502 bebd 8e6c 153e
000003c0: 766f dcbd d918 19be a766 b9bd 4d0b f8bd
000003d0: aa68 12bd 3b30 60be 7fd1 f3bd 1ebd a53d
000003e0: edfe 15bc b8a0 7dbe 4bdb b53c 3632 643e
000003f0: 46fa 03be 0886 b93c bc35 2cbe 676a ebbb
-0.39948994 -0.045809515 -0.08478019 0.16053285 -0.29787046 0.021356856 -0.22445844 -0.07164828
-0.048914332 -0.09164427 -0.16066189 0.07177377 0.33021733 0.029525468 0.075681716 -0.03370625
0.27078763 0.18541175 -0.32949328 0.23326159 0.103248514 -0.08060104 0.17120086 0.11807925
-0.087400906 0.15090336 -0.29841614 0.16702674 0.2497527 -0.040072985 0.21817708 -0.108979024
-0.31394458 -0.120367385 0.15401776 0.18560043 0.2989022 0.06431148 0.034902465 -0.01667398
0.05846171 -0.1591163 -0.025294067 0.2898419 -0.0073911273 -0.0051803375 0.027680337 -0.09169353
-0.030146092 0.12371654 -0.26724845 -0.2645546 0.17326963 -0.10052966 -0.06517665 -0.28822756
0.13970302 -0.05641259 0.2574378 0.00550941 -0.14968696 0.195351 0.1037417 -0.07189039
-0.007929325 0.28523612 -0.11427639 0.060055412 -0.024811069 0.12352642 -0.003144145 0.03778603
-0.21445103 0.19455862 0.10833915 -0.2143032 -0.07118051 -0.027769385 0.14445111 0.026713695
0.25679737 -0.12865375 0.033304777 0.26668173 0.12799965 -0.16079572 -0.25653547 -0.23061453
0.10405726 0.18246561 0.043938715 0.3148353 0.14760636 -0.13382448 0.25624144 0.37493068
-0.1560706 0.031902116 -0.3620043 -0.2107001 0.1749989 -0.018064292 0.1723384 -0.33655718
-0.16455364 -0.18277666 -0.112269945 0.19962734 -0.00963246 -0.37415028 0.41029552 0.3659136
0.011564428 0.043213718 -0.002563865 -0.17284338 -0.27054518 0.113699764 0.05024215 0.34976885
-0.16417676 0.19637659 -0.020307515 0.29913193 0.25555095 -0.37691727 -0.22001258 0.276201
0.09250613 0.19225393 -0.051407594 -0.38104132 0.011169059 0.12765153 0.045611575 0.15096126
0.100544736 -0.21309017 -0.20991899 -0.17248169 0.25746685 0.07309097 -0.06951499 -0.27992028
-0.056376815 -0.0084680505 -0.07697167 0.19382864 0.19534335 0.41337827 0.026196994 0.07422657
-0.27889365 -0.030919498 0.115541816 0.0529569 0.17340788 0.22311871 0.05832552 -0.20251153
0.16789329 -0.15509322 -0.2097683 -0.1324528 -0.2978519 -0.030113006 -0.093478784 0.09030808
0.24246925 -0.102468796 -0.09797139 -0.10106733 0.24643825 0.33015695 -0.19079387 -0.13607319
0.016169257 0.05908684 0.13603221 -0.16832958 0.042459745 -0.05548905 -0.01043131 -0.004352002
0.12163155 -0.32285246 0.069268234 -0.24345715 -0.07572813 0.22388233 0.30365482 0.097663045
0.2626894 0.13570148 0.053428397 -0.1215549 -0.11594961 0.05573685 0.18849906 -0.009554728
0.12507626 -0.03206491 2.254419e-05 0.24065962 -0.10737878 -0.16084772 -0.16285269 0.011587431
-0.1402363 -0.088369764 0.21375977 -0.119623415 -0.22874516 0.0009423517 -0.093553826 0.2819689
0.13214907 -0.022974592 -0.15397996 0.11686228 0.057012975 -0.15705639 -0.1102084 -0.16023089
-0.06518145 -0.037809663 0.18591143 0.072173744 -0.17155424 0.07618868 -0.008376908 0.020129075
-0.0036353953 0.34888527 0.031394854 -0.16611421 0.1569015 0.05432724 -0.09277872 0.14592192
-0.10763447 -0.14950885 -0.090527825 -0.121115305 -0.035744347 -0.21893398 -0.119051926 0.08092712
-0.009155017 -0.2476834 0.022199294 0.22284779 -0.1288844 0.022646919 -0.16817373 -0.007184315

bias f4 [10]
00000000: aa51 8ebd 74ae 4fbd 59fd a0bc 8a22 53bd
00000010: e3fb 363d 7312 acbc b2f6 073e 1ee1 963a
00000020: 9dca 07bc 7dbd 823d
-0.0694917 -0.05070348 -0.019652056 -0.05154661 0.04467381 -0.021004891 0.132777 0.0011511182
-0.008288053 0.06383798
