dl_learn/ff_nmodel/ff_nm_20.pth (torch, 587399 bytes, 10 tensors)

weight f4 [32, 3, 5, 5]
000000 cd 5c 7d bd d0 58 c3 bd 97 b8 33 bd d9 b0 c6 bc
       -0.06185608 -0.09538424 -0.04387721 -0.02425425
000010 c9 31 42 bd 4f 46 92 3c e6 53 7a be ae 1d cb bd
       -0.04741076 0.017855791 -0.24446067 -0.0991777
000020 08 51 62 be 8b 45 93 3b 88 97 81 bb 88 af 0d be
       -0.22101223 0.004494374 -0.0039548315 -0.13836491
000030 ee d9 c4 bc 14 8f 73 bc 25 c7 89 bd b0 a9 11 3d
       -0.024029698 -0.014865655 -0.06727437 0.035562217
000040 bb bc 47 be 32 28 0b be 63 64 82 bd 50 b2 b5 bd
       -0.19505589 -0.13589552 -0.063668035 -0.08871901
000050 bf bc 85 bd aa c8 bc bd 19 82 18 bd 72 a1 de bd
       -0.06530141 -0.09217961 -0.037233446 -0.10870637
000060 a0 e2 50 3d 45 da f8 3d e1 fa b4 bd 17 c2 22 3e
       0.050997376 0.121510066 -0.08836914 0.15894352
000070 9a 7c e7 3b 90 dc 03 3a 6c 28 8d bd ee 6b 85 bb
       0.007064414 0.000503012 -0.068924755 -0.004071704
000080 69 5f e1 3c 8a ba a1 bd 32 9e b8 bc 3c 6e 40 bb
       0.027511315 -0.07896908 -0.02253637 -0.002936258
000090 18 5a c5 3d 9b 5d 5a 3e 06 5c c4 3d 74 0b c7 3d
       0.09636325 0.2132477 0.095878646 0.097189814
0000a0 ec 9e 00 bc a0 66 2a bd bb 2e 1e 3e e4 8c 18 bd
       -0.00785039 -0.041601777 0.15447514 -0.03724374
0000b0 99 8b be 3c 7a 4a 8a bd 14 c3 85 3c fc fc 74 3d
       0.023259925 -0.067524865 0.016328372 0.059811577
0000c0 d0 a7 c9 bd 16 d5 9e 3d ad 0a 21 3e 15 08 f6 3d
       -0.09846461 0.07755487 0.15726729 0.1201326
0000d0 b0 0f 02 3e d2 c9 b8 3d 1f 0b da bc 0e a8 93 bd
       0.12701297 0.09022869 -0.026616631 -0.07209788
0000e0 43 87 e3 bd 14 ae 99 bc 90 0e b9 b9 fd f0 15 3d
       -0.111097835 -0.018759765 -0.000352968 0.036606777
0000f0 22 5c 1a 3d 0c f8 bb 3d a4 ce 8b 3e fe cb 68 3d
       0.03768552 0.091781706 0.27306092 0.056835167
000100 59 8f 1e 3e 6c 42 14 3e df 7b d7 3d d7 b4 f4 3d
       0.1548437 0.14478463 0.105216734 0.11948555
000110 dc 4d 96 bd ea 81 99 bd cc b6 8d 3d 6a 1b 38 3d
       -0.07339069 -0.07495482 0.06919631 0.04494802
000120 2b 27 d8 3d d8 39 5e bc 2b 02 16 3d 05 09 30 3e
       0.10554346 -0.013563596 0.03662316 0.1719094
000130 94 bf 18 3e e3 68 ff bd 61 04 1f be 2f 42 45 3d
       0.14916831 -0.124711774 -0.15529014 0.04815882
000140 fd 3f 4d bc 11 08 d4 bd 56 79 22 be a0 cc 5e 3d
       -0.012527463 -0.10353101 -0.15866598 0.054394364
000150 d9 2e 6a 3d 84 67 8a be 9e f9 51 be cc ed 3f be
       0.057173584 -0.270321 -0.20505378 -0.18743056
000160 ef 3d 21 be 2c b2 2f be a3 74 6c be d4 c0 4d be
       -0.15746282 -0.17157811 -0.23091368 -0.2009309
000170 35 a4 a8 3d 74 57 d1 bc 25 08 fa bd a7 b1 36 3d
       0.08234445 -0.025554396 -0.12208585 0.044603016
000180 28 9e 72 3d f1 d5 1f 3e c3 1b 2e bd 99 21 52 bd
       0.05923286 0.15608956 -0.042506944 -0.051301572
000190 a1 1c 7e 3e e8 82 81 3e 87 5e 99 bd 06 f0 a1 3d
       0.24815609 0.25295186 -0.07488733 0.07907109
0001a0 e4 ba a7 bc 94 b3 00 3e 47 fb a6 3d ae c9 41 be
       -0.020474859 0.12568504 0.08153396 -0.18924591
0001b0 bd 72 9f ba 66 13 1f 3e 30 85 66 be b4 21 f1 bd
       -0.0012164932 0.15534744 -0.22511744 -0.117740065
0001c0 b1 fa ff bd 88 cd b7 3d a4 e0 6e 3d 26 93 97 bd
       -0.124989875 0.08974749 0.058319703 -0.07401113
0001d0 f5 99 e8 bd 73 dd 66 3e 3e ba 3e bd 7b 3b 55 bd
       -0.1135749 0.22545414 -0.046564333 -0.052058678
0001e0 a9 23 fc 3d 17 6f 67 3e 2e 83 3b 3e b5 f2 3a 3d
       0.12311489 0.22600971 0.1831176 0.04564162
0001f0 16 b2 08 3e 90 b1 15 3e b2 87 5b 3d 78 16 cc 3a
       0.13349184 0.14618516 0.053596206 0.0015570661
000200 89 8e af 3d ec 4c de bd 6c 96 2a bd 2f 21 4e 3d
       0.08572108 -0.108545154 -0.04164736 0.050324615
000210 d3 b2 d7 bd 02 63 b0 3d 5b 13 b4 3d e6 7c 2d be
       -0.10532155 0.08612634 0.08792754 -0.16942176
000220 df 55 89 be 58 6e 34 be 5a f4 f3 3d 41 07 88 3d
       -0.26823327 -0.17620218 0.11911841 0.066420086
000230 04 66 0c be 5b 63 4a bd 95 8a 1a 3e 2a 02 84 bd
       -0.13710791 -0.04941116 0.15091927 -0.06445725
000240 7b 10 c7 bd 05 62 51 3d 41 99 59 3e fc b6 95 3d
       -0.0971994 0.05111887 0.21249868 0.07310292
000250 0b 3c ad 3c ac a2 5f 3d 65 07 a4 3d 64 f0 cc bd
       0.021146795 0.054598495 0.08009223 -0.100067884
000260 c2 c3 83 3d 93 ea 9c 3d 0f 27 a1 3d 11 37 b9 bd
       0.06433822 0.07661929 0.07868778 -0.09043706
000270 90 e0 1b be b2 27 4e 3c eb 2c cf 3c ba e2 7e 3c
       -0.15222383 0.012582706 0.025289973 0.0155569855
000280 f1 95 20 be ab 3d 67 be f2 c8 32 be 9a ed b0 bd
       -0.15682198 -0.22582118 -0.17459467 -0.08639069
000290 d7 73 87 3d 3b 7b be 3c 65 9c 3c bd a7 be 30 be
       0.066138916 0.02325212 -0.046047587 -0.17260228
0002a0 1e 4b 2a be 9b 54 23 be 96 76 67 bd d1 c9 28 bd
       -0.16630217 -0.15950243 -0.056509577 -0.041208092
0002b0 4f 76 3d bd b2 71 80 3d 80 64 54 3d 7a ef 6c bd
       -0.046255406 0.06271686 0.051853657 -0.05784557
0002c0 3f 78 62 bd 4f f4 f6 bd 35 b9 13 bd af f7 75 bd
       -0.055290457 -0.12058317 -0.0360653 -0.060050663
0002d0 ca fe 14 3d ca 32 6a bd 74 f4 80 3d 27 37 45 bd
       0.0363758 -0.057177342 0.06296626 -0.0481483
0002e0 67 3f 36 3d a2 93 73 3c 39 0a 48 bd 96 91 99 3c
       0.04449406 0.014866741 -0.048837874 0.018746179
0002f0 f1 57 99 bd ad 76 c4 bd f2 ff 16 3d e3 50 0b be
       -0.074874766 -0.09592948 0.036865182 -0.13605075
000300 00 5c 0f 3c 9a a4 a7 3a 6c a8 90 bb 44 1a be bd
       0.008749962 0.0012790144 -0.0044146087 -0.092823535
000310 b6 74 8c 3d b6 25 88 3d 51 d9 ad bd 86 53 87 bd
       0.06858198 0.06647818 -0.084887154 -0.06607728
000320 32 34 4f 3d ce 03 a9 3d f8 f1 11 3e be 1c cb 3d
       0.050586887 0.08252679 0.1425246 0.099175915
000330 82 60 de bc 99 cf 62 3d e5 46 aa 3c 58 c8 c2 3c
       -0.027145628 0.05537376 0.020785758 0.023777172
000340 13 20 2c 3e 00 a6 8e bd 48 a5 83 bc e4 0d f1 3d
       0.1680911 -0.06965256 -0.016070023 0.117702276
000350 0f c8 05 3e 31 bb 8a 3d 11 25 32 3e cb eb 11 3e
       0.13064598 0.06773985 0.17396952 0.14250104
000360 a2 1b 48 3c f7 7b 5a bd ab 03 89 3d b6 9c cb 3d
       0.012213619 -0.05334088 0.06690153 0.099419996
000370 79 35 2a 3e 1b fc f2 3c 43 04 5d bc 72 f1 bd 3d
       0.1662196 0.029661229 -0.013489786 0.09274568
000380 c2 67 4b 3d 89 86 d9 3d 26 cb 0e 3e 4b 61 09 be
       0.049659498 0.10621364 0.13944682 -0.1341602
000390 7d a8 1b be 8b 42 ea bc d5 00 31 3e ca ac 31 3e
       -0.15200992 -0.028596183 0.17285474 0.1735107
0003a0 d2 1f 70 3d 48 40 12 bd 12 26 2f bd 46 8e 15 bc
       0.058624096 -0.035705835 -0.042760916 -0.009128159
0003b0 2d 98 73 3d 26 01 28 3d 91 e2 53 3c 88 ef 36 be
       0.059471298 0.04101672 0.012932436 -0.17864811
0003c0 98 a8 ea 3d 2c a2 b3 3d 60 de 01 3e 84 41 1a 3e
       0.11457938 0.08771166 0.12682486 0.15064055
0003d0 5b c7 48 be b8 2d b5 3d 8f bd 50 bd f8 b7 37 3d
       -0.19607298 0.08846611 -0.050962027 0.04485318
0003e0 4a df 37 ba 0e 69 e4 bd 22 03 70 bd 49 9d 17 3e
       -0.00070141687 -0.1115285 -0.058596738 0.14806093
0003f0 84 70 1e be cf d7 92 bd c2 18 99 3d 12 bd 00 3e
       -0.15472609 -0.071700685 0.07475425 0.12572125

bias f4 [32]
000000 68 3f fb bd 5e 90 1d 3e e9 ad f0 3d 52 21 af bd
       -0.12267953 0.15387103 0.11751921 -0.08551277
000010 3d 6d 2d 3e 97 00 46 be fa c8 6b be a7 f7 b7 3e
       0.16936202 -0.19336163 -0.23025885 0.3593113
000020 98 5d 49 be 16 6c e6 bc 8d ab dc bd 18 9a b9 3d
       -0.1966461 -0.028127711 -0.10774908 0.09062594
000030 e9 ea db 3d 46 dd 4e be 42 50 09 3e 89 54 4e bd
       0.10738165 -0.20201597 0.13409522 -0.050373588
000040 d3 72 f6 bc 51 33 8e 3d 59 69 84 3e f5 3d 1e be
       -0.03008405 0.069433816 0.25861624 -0.15453322
000050 62 81 02 be ce 91 b8 3d 50 1b 9e be 52 38 ca be
       -0.12744668 0.09012185 -0.30880213 -0.39496094
000060 ab 2b 96 bd 76 8e 2f 3e cb a3 c7 be 37 f7 48 be
       -0.07332548 0.17144188 -0.38992152 -0.19625555
000070 23 c1 c0 bd 1d 44 39 bd be 97 07 bd d9 89 8e bd
       -0.09411838 -0.045230974 -0.033103697 -0.06959886

weight f4 [32, 32, 5, 5]
000000 84 9c 12 3d 63 0b c9 3c 03 0a d2 3c 7e 46 ad bc
       0.035793796 0.024541562 0.02563954 -0.021151777
000010 d8 0e 1d bd 46 69 05 3d a2 f5 0e 3d 46 64 2a 3d
       -0.038344234 0.0325711 0.034902222 0.041599534
000020 24 32 c8 3c fa ec ce 3c 61 cd 1b 3d 66 dd 53 3d
       0.024437971 0.025259484 0.03803766 0.051724814
000030 d7 ba 3a 3d 5e 8d 1b 3c c6 45 c3 3b b8 09 53 3d
       0.04558834 0.009494154 0.0059592454 0.05152294
000040 23 f2 12 3d 05 c9 77 3c 7d 48 42 3d 8e 12 1e 3c
       0.03587545 0.01512361 0.04743241 0.0096479785
000050 7a ee 87 3c 33 18 1a bc bb 14 c3 3c 5c f3 6d 3c
       0.016593207 -0.009405184 0.023813596 0.014523353
000060 21 12 f2 bc 43 a6 2e 3c 5d 0b 31 bb ba 8a 7d 3c
       -0.02954966 0.010659757 -0.002701483 0.0154749695
000070 02 10 5a bb 02 89 da bc 25 ae ac 3d 2f f2 e0 3d
       -0.0033273702 -0.026676659 0.08431653 0.10983693
000080 2f 49 a5 3d 11 69 54 3d 1f 52 85 3d 96 35 8e 3c
       0.08070599 0.05185801 0.06509804 0.017359536
000090 ea 0f 9c 3d 0a 36 d2 3b 66 91 06 3c a8 3b a2 bb
       0.07620223 0.0064151334 0.008213377 -0.0049509592
0000a0 f3 bc 61 3d 67 00 94 3c f0 a3 2c bd e4 a6 fe 3b
       0.055111837 0.018066598 -0.04214853 0.0077713598
0000b0 d6 71 0d bd b0 19 38 38 c3 a6 bd bc 26 e3 69 3c
       -0.03453239 4.3892942e-05 -0.023150807 0.014275348
0000c0 f3 f7 f1 3c 93 6e 85 bc 26 99 d0 3c 49 5b b1 3b
       0.029537177 -0.016288077 0.025463652 0.0054124934
0000d0 f4 69 ac bc 0e 29 c7 3c 13 49 83 3c ec 00 e2 3c
       -0.021046616 0.024311569 0.016026055 0.02758833
0000e0 3a 54 09 3d b3 ef fb 3c d6 25 15 3b d3 37 73 3c
       0.03352759 0.030753946 0.0022758148 0.0148448525
0000f0 12 80 41 3d a5 31 bc 3b ea 2d f8 3b 5c 83 7a 3c
       0.047241278 0.005743223 0.0075738328 0.015290108
000100 37 78 aa bc 66 da 0f bb b4 af c4 bb cc 66 b7 bb
       -0.020809276 -0.0021950244 -0.0060023908 -0.005596971
000110 0c 5d 1d bb 7f a3 b1 ba 20 bc 27 3c 4b b8 0b bd
       -0.002401176 -0.0013552754 0.010237724 -0.034111302
000120 4c e5 7d bd 45 e9 5d 3a d2 ee 1d 3b 80 52 dc bb
       -0.061986253 0.0008465241 0.0024098647 -0.006723702
000130 ac fb 55 3c 48 5c a5 3b 17 a8 f2 3c e0 eb 8c bc
       0.0130604915 0.005046401 0.029621167 -0.017202318
000140 f9 b1 1e 3d 03 bb e7 bc 90 47 35 3a 3e 1c ce 3c
       0.038743947 -0.028287416 0.00069152657 0.025159951
000150 e3 97 25 3d ef 22 ca bc 44 08 33 bd 2e cb 03 3d
       0.040428054 -0.02467486 -0.043709055 0.03217619
000160 50 31 0c bd 1c 6e 01 3c 95 45 d7 3c 15 a8 f0 bc
       -0.034226716 0.007899787 0.026278296 -0.029377023
000170 c9 fe 8b bb 1e e3 c4 3b 8f c8 2c 3d be e2 94 bc
       -0.004272316 0.00600852 0.042183455 -0.018174525
000180 a6 4c dc bc af b8 4b 3d 5a 6a d9 bc ec 65 14 3d
       -0.026892018 0.049736675 -0.02653997 0.036230013
000190 8e 91 ab 3b 63 e1 f6 3c 08 df 99 bc 74 5d 9b bc
       0.0052358573 0.03013677 -0.018783107 -0.01896546
0001a0 44 9e b2 3c 9c 9b de 3c 23 ad 25 3d 32 4b 0f bd
       0.021803983 0.02717381 0.04044832 -0.03498382
0001b0 1b 70 a5 3a 6d df 0d 3c 46 f5 d9 bb 7a 81 60 bc
       0.0012621911 0.008659226 -0.0066515533 -0.013702745
0001c0 94 6d 95 3c 35 6e 04 bd 14 21 0b bc 54 62 9f bc
       0.018240727 -0.032331664 -0.008491773 -0.019456066
0001d0 ad af 29 3d f0 e7 cd 3a 8c 25 d9 bb 12 4d 98 3c
       0.041427303 0.0015709382 -0.0066267904 0.018591437
0001e0 21 d7 cb ba 91 2b ef 3c ab cc 9c 3c f4 82 cd bc
       -0.0015551784 0.029195579 0.019140562 -0.025086857
0001f0 08 2b 91 bb 43 fd d6 3c d0 82 1e 3c 38 e9 e8 3c
       -0.0044301786 0.026243811 0.009674743 0.02843152
000200 1e 13 81 3b 8c dc 19 bd d3 78 d4 3c 5c 56 11 3b
       0.0039390465 -0.037563846 0.02593652 0.0022176718
000210 14 e4 80 bc ac c2 36 bd 3f 83 23 bd 93 59 bd bb
       -0.015733756 -0.044619247 -0.039920088 -0.0057785003
000220 f6 a8 5a 3d 79 79 3c 3d 31 cc 53 bc 42 15 70 bc
       0.05338379 0.046014283 -0.012927101 -0.014653506
000230 ac ce cc bb 7c 73 37 3d 5e db 0a 3d 86 9e 4e bc
       -0.006250223 0.04478787 0.03390061 -0.012611037
000240 e3 c7 aa bb 4f 34 b5 bc f0 83 48 3d b3 c1 38 3d
       -0.0052118166 -0.02211967 0.04895395 0.0451066
000250 4d 1f 44 3c c5 88 20 3d 25 5b a1 3b 22 e9 52 bd
       0.011970353 0.039192934 0.0049241954 -0.051491864
000260 2c 4a 2e bd 41 97 95 bc 06 05 70 bd e4 6b 7a 3c
       -0.042551205 -0.0182606 -0.05859854 0.015284512
000270 a1 5d 09 3d 72 5f dd bc c9 4a 50 bb 1b d8 b5 bb
       0.033536557 -0.027023051 -0.0031782857 -0.0055494434
000280 73 29 fd 3c 4e 5f 81 3b c5 21 8d bc 31 9e a6 bc
       0.030903554 0.003948129 -0.017228017 -0.020339103
000290 67 a8 8f bc 34 93 22 3d 1f 44 80 3c 06 2c 33 3d
       -0.017536355 0.039691165 0.015657483 0.043743156
0002a0 ca 6b 4a 3c 52 f5 5e 3d ec f6 a9 bc e2 db 27 3c
       0.0123548005 0.054433174 -0.020747624 0.010245295
0002b0 52 55 32 bd eb c4 1c bc 52 ab e2 3b fe 67 1f 3c
       -0.0435384 -0.009568433 0.0069173956 0.0097293835
0002c0 7d 5a 8a 3d a8 44 6e 3d 7c 6f 23 3d d3 b2 a6 3d
       0.067555405 0.058170944 0.03990124 0.08139577
0002d0 db f5 a7 3d 64 45 37 3d 72 2d 9a 3c 4d 71 e7 3b
       0.0820119 0.04474391 0.018820498 0.007063067
0002e0 dd c2 00 3d b3 b9 66 3d 5c f7 fa bc 2e 67 d1 bc
       0.031435836 0.05632944 -0.030635528 -0.025561895
0002f0 d9 e4 50 3c 20 67 3a 3b 5c 0b 19 bd 61 a1 c1 bd
       0.012749874 0.0028442815 -0.03736435 -0.09454609
000300 ee 88 b1 3b 0e ff 5e bd d2 85 bd bb 03 f9 1a bd
       0.0054179346 -0.054442458 -0.005783775 -0.037835132
000310 6c 0e b9 bd 38 95 1c bd c3 c7 92 bc cc 4b 0a bd
       -0.09035954 -0.038228244 -0.01791752 -0.03376369
000320 10 7a b6 3c 68 d7 b1 3a 53 a2 18 bd e1 0e de bc
       0.022275 0.0013568224 -0.03726418 -0.027106704
000330 be 35 dd bc 32 96 83 3d 1e 40 39 3d 32 83 3e bc
       -0.027003165 0.06425132 0.045227163 -0.011627959
000340 fd f1 b8 3c 61 80 23 3d 43 45 28 3d 0e a1 d1 3b
       0.022576327 0.039917354 0.041081678 0.006397373
000350 39 9c 5f bb 7b c4 a1 3c d8 ce cb 3c e1 6b 53 bb
       -0.0034120216 0.01974701 0.024878904 -0.0032260346
000360 25 88 a4 3c 9b 80 12 bd ce 97 aa 3c 58 bd 11 bd
       0.02008445 -0.03576718 0.02082434 -0.035580963
000370 4f 27 4b 3c 7b c7 f9 bc 36 50 4b bd ab d7 b1 bc
       0.012399509 -0.030490628 -0.049637042 -0.021709284
000380 71 1c c0 3c 15 c8 ca 3c 29 64 e0 3c 7f 46 48 3c
       0.023451062 0.02475361 0.02739151 0.012223839
000390 54 b7 d8 bc 7b 88 0b bd 55 0c 4e 3c 09 17 95 3d
       -0.026454605 -0.034065705 0.012576182 0.07279784
0003a0 37 e0 95 ba f9 01 be 3b f1 f1 45 3a 5e 26 3a 3d
       -0.0011434619 0.005798575 0.00075510057 0.045446746
0003b0 7f 49 13 3d dd 81 6b bb 00 56 32 bc da 2b f3 bb
       0.035958763 -0.003593556 -0.010884762 -0.007420999
0003c0 0c c2 66 3c 3a a9 c9 3c 02 e2 24 bd 0d 0f 01 3d
       0.01408435 0.024616826 -0.0402546 0.031508494
0003d0 00 4a a8 37 9a 81 07 bc ab 64 c6 3b 3c c0 0d bd
       2.006162e-05 -0.0082706455 0.006054481 -0.034607157
0003e0 80 99 0c bc 4b e8 d4 ba 7c 05 2b 3d a9 d2 ae 3c
       -0.008581519 -0.0016243545 0.041753277 0.021340685
0003f0 31 05 f5 3c d1 ed 8f bc ba 14 cd 3c 32 81 0e bc
       0.029909702 -0.017569454 0.025034297 -0.008697795

bias f4 [32]
000000 fd 86 01 bd 2a 5a f3 bc e7 d8 bd bd d5 29 eb bd
       -0.031622875 -0.02970608 -0.092698865 -0.11482588
000010 55 6a 91 bc 6f cd 98 bd 93 27 a7 bc 16 a5 f8 bd
       -0.017750898 -0.07461058 -0.020404613 -0.12140863
000020 cc de 90 bd 2d 46 f6 3c 18 9e bc bd eb 7e 3b be
       -0.07073745 0.03006276 -0.092098415 -0.18310134
000030 87 53 47 3d 27 c7 fe bd d3 9a a7 bd 4c 7f 92 bc
       0.048663642 -0.12440329 -0.08183827 -0.017882966
000040 46 11 48 be 38 c1 c5 bd 93 fc bb bd 62 21 bd bc
       -0.1953784 -0.09655994 -0.09179034 -0.023087207
000050 02 ad b6 bc a3 bc 21 be aa fe a8 3c 2f 41 7a bd
       -0.022299293 -0.15794615 0.020629246 -0.06109732
000060 a2 81 f0 3b 5e 0a 99 bd 7b 73 b7 3d f9 ff 82 bc
       0.007339672 -0.074726805 0.08957573 -0.015991198
000070 9e 0f a5 bd 95 d9 e6 bd 44 27 fb 3c b3 05 07 be
       -0.08059619 -0.11271969 0.030658372 -0.13185768

weight f4 [64, 32, 5, 5]
000000 de 29 d8 3c 49 cf 91 bc e5 dc 52 3c 7a fa d7 bb
       0.026387151 -0.017799037 0.012870048 -0.0065911384
000010 b7 e0 63 bc da 7a 8c bc 19 40 ae 3c d2 f1 84 bd
       -0.013908557 -0.017148424 0.021270799 -0.06491436
000020 55 31 e7 3c 33 74 d8 3b 9c a9 b5 3c e5 3f 15 bd
       0.028221766 0.006605649 0.022175603 -0.036437888
000030 e0 1d 3b bd fc 1a a9 3b ba 91 6f 3b 4c 28 ac bc
       -0.045682788 0.0051606875 0.0036555366 -0.021015309
000040 e7 57 4b bd 93 eb 41 bd 52 65 5a 3c 40 8c 13 bd
       -0.049644377 -0.0473438 0.013329821 -0.036022425
000050 4c 12 41 3c 60 4f d4 bc bd 80 10 3c 21 b3 27 bc
       0.0117841475 -0.025916755 0.008819756 -0.010235579
000060 ce da 2f bb 04 8a 13 3d c0 f6 0f 3b 81 bb dc 3c
       -0.0026833299 0.036020294 0.0021967143 0.026944878
000070 bc 53 8e 3d 4a fb ae 3c f4 64 bf 3b c9 25 27 bc
       0.06949565 0.021360058 0.005840892 -0.01020188
000080 ba 5f 92 3c 95 ce 48 3c 63 2f 0c bc 40 e0 ec 3c
       0.017867912 0.012256284 -0.00855622 0.028915524
000090 af 04 3b bc 2a 5d 09 bd ef 7e cd bc 57 5d b7 ba
       -0.011414691 -0.033536114 -0.02508494 -0.001398961
0000a0 a5 1a f5 3a f7 b4 61 3d 8a 0b f9 bc 68 97 bd bc
       0.0018699957 0.055104222 -0.03040101 -0.023143485
0000b0 0a 8c ec 3b 2f ba ac bc 0c a8 93 3c 16 73 62 bd
       0.0072188424 -0.021084873 0.018024467 -0.055285536
0000c0 fb 10 34 bd 02 0e 04 3d 5c e3 f3 3c de d4 e0 3c
       -0.043961506 0.03223992 0.0297715 0.027445253
0000d0 c5 cf 7b b9 73 71 87 bc 96 8f 1d bd 2f eb 1b bd
       -0.00024014626 -0.016533589 -0.038467012 -0.038066085
0000e0 91 af 59 bd 48 fc 53 bd 53 3e 47 bd d0 aa 52 bd
       -0.05314595 -0.051754266 -0.04864342 -0.05143243
0000f0 f6 34 e0 3c a0 f6 51 ba 68 d3 58 bd 60 bd c4 bc
       0.027369004 -0.0008009467 -0.052935988 -0.024016082
000100 b4 ae 38 bd 89 2f b8 3c b7 3f e7 3b 28 05 d0 bc
       -0.045088485 0.022483604 0.007057156 -0.025393084
000110 e2 44 8f bc f0 04 8f bc b9 d5 9a bc 7c 17 9d bc
       -0.0174889 -0.01745841 -0.018900739 -0.019176237
000120 19 a5 20 bc bc 4f 52 bb 9a 1c 15 bd 24 6c 4f 3d
       -0.009804987 -0.0032090982 -0.03640423 0.05064024
000130 7b c4 1c bd 46 5b aa 3c 51 af 84 3d d2 8f aa bb
       -0.038273316 0.020795476 0.064787515 -0.005205133
000140 f1 60 cb 3c 00 98 26 bd 7f 7e e4 bb 32 7e 31 3d
       0.024826499 -0.040672302 -0.0069730873 0.04333324
000150 82 c0 c3 bc cd cc a6 3b 2b 2f 40 bd 1a c7 84 bb
       -0.023895506 0.005090332 -0.046919983 -0.004052055
000160 22 63 e3 3c b6 71 a9 3c 0d 84 27 bd e6 07 3b 3a
       0.027757231 0.020684104 -0.040897418 0.0007134661
000170 d1 7b f1 3c 78 74 3b bc e2 26 34 bd bb e9 11 bd
       0.029477986 -0.0114413425 -0.043982394 -0.035623293
000180 5c 2b b1 bc 71 d0 a9 b9 cb 76 83 3c c4 be 42 bb
       -0.02162712 -0.00032389493 0.016047856 -0.0029715756
000190 2e fa b5 bc 38 87 93 bb c8 0e e2 bc 39 95 12 3b
       -0.022214022 -0.0045022033 -0.027594939 0.0022366776
0001a0 89 80 ed b9 04 99 ed bc 35 93 52 3c 30 4c a9 bb
       -0.0004529993 -0.029003628 0.01285248 -0.005166553
0001b0 ba 4f c6 3c 0d 8c f0 3c a8 f2 c9 bc 55 fd 3a 3c
       0.024207938 0.029363656 -0.02465184 0.011412938
0001c0 b0 1c 0d bd 02 3f e8 bc ff 7b a1 bc 85 48 60 3b
       -0.034451187 -0.028350357 -0.019712446 0.0034222913
0001d0 f7 e2 fc bb 08 22 29 bc b7 d8 e3 3c 9e 6a 1f 3b
       -0.007717486 -0.010323055 0.027813299 0.0024325023
0001e0 5d 64 0e 3d 44 25 71 3c d0 e6 21 bd 82 76 18 bd
       0.034763683 0.0147183575 -0.03952676 -0.037222393
0001f0 61 1d 24 bd 5d 3d f2 3b cd 47 27 bd 6a 6f c6 bc
       -0.04006708 0.007392569 -0.04083996 -0.024223048
000200 9c 59 92 bd d3 41 16 bd 9a 2a 20 3c 0f c3 94 bb
       -0.07145998 -0.03668387 0.009775782 -0.0045398544
000210 16 26 22 3c ed 43 b1 3c 6b 14 85 3c b2 54 d2 3c
       0.009896776 0.021638835 0.016245088 0.025675151
000220 48 c5 66 3c af b3 07 3b 42 1a ae bc e7 85 46 3b
       0.014085121 0.0020706465 -0.021252755 0.0030292214
000230 5d 72 6c 3d 52 40 58 bb 1a c8 43 bd f9 92 9c bd
       0.057726253 -0.0032997322 -0.047798254 -0.0764522
000240 d8 60 02 bd aa 92 4e 3d 8c d1 48 3c 61 5d b1 3c
       -0.03183064 0.05043284 0.012256991 0.021650972
000250 b2 52 78 bd 3b 3a 01 bd 42 7b 83 bc b9 31 7b 3c
       -0.06062574 -0.031549674 -0.016049985 0.015331679
000260 80 8d db bc d8 30 a3 3c 50 94 ae bc 5f b5 78 3d
       -0.02680087 0.019920751 -0.021310955 0.060719844
000270 34 66 87 3c 3a 1d 0e bd b8 42 57 3d 83 94 13 bc
       0.016528226 -0.03469584 0.052553862 -0.009007576
000280 a2 09 5a 3d 0e 70 bc 3c d3 bf 83 bb a8 5a fb 3c
       0.053231843 0.02300265 -0.00402067 0.030682877
000290 c3 94 9d 3b f4 0e 2a bd 1d b0 05 bd 43 86 4c 3c
       0.0048089935 -0.041518167 -0.032638658 0.012483182
0002a0 3f c0 59 3d 6b 1c 73 3d 42 c5 33 3c 67 51 6a bd
       0.053161856 0.059353273 0.010972323 -0.057206538
0002b0 fe 0f 12 bd d0 56 8a 3c fd ca 6b 3c ca 15 84 3d
       -0.035659783 0.016887099 0.014391658 0.064494684
0002c0 5b 4b f8 3c f6 b6 20 bb 43 21 a4 3d 6f bd 46 3b
       0.03030937 -0.0024523116 0.08014157 0.0030325314
0002d0 95 d2 52 3d 1f 54 49 3d 36 6a 0b bd 6a a8 02 3d
       0.051470358 0.04915249 -0.034036838 0.031898893
0002e0 23 ce 96 3c 9f a6 42 bc 49 0e c4 3c 86 bb 84 bb
       0.01840884 -0.011880546 0.023932593 -0.004050675
0002f0 f0 c1 ea 3c 17 39 40 3c 90 b8 45 bc dc d4 27 bd
       0.02865693 0.011732361 -0.012067929 -0.040974483
000300 35 4d f5 ba 94 39 4a 3d b3 19 00 bd 16 be 5c bc
       -0.0018715026 0.049371317 -0.03127451 -0.013473054
000310 ec 4c 11 ba 9c bc 85 bc 63 58 15 3b fc 94 13 3c
       -0.0005542773 -0.016325288 0.0022788278 0.009007689
000320 f3 9e 3e 3c 05 cd 3d bd ba e0 f5 bc 58 b6 1e 3d
       0.011634576 -0.0463381 -0.030014385 0.038748115
000330 7c 48 5c bc 93 d8 91 3c ed 23 2c bd c2 cb 22 bd
       -0.013445016 0.017803466 -0.04202645 -0.0397451
000340 f7 d6 36 3d 19 f0 c0 bc 2d ae 13 bd 66 7f 46 bc
       0.0446386 -0.023551987 -0.03605478 -0.012115335
000350 52 b5 17 bc 1c 71 0b 3d 1d 18 dc 3c 78 31 f3 3b
       -0.009259539 0.034043416 0.026866967 0.0074216686
000360 3e df ff bc 03 00 32 bd af 0d 89 bb 42 4d e7 3c
       -0.03123438 -0.043457042 -0.0041825394 0.028235082
000370 53 28 ea bb 89 4f db bc 3b f1 a1 bb 9c 2a 39 bd
       -0.0071459203 -0.026771324 -0.004942087 -0.04520665
000380 69 09 0e 3c a1 8f 01 bb 41 1e 06 bb e5 52 4e bd
       0.008669236 -0.0019769447 -0.002046481 -0.050372023
000390 b6 14 3b 3c 91 7b 73 3c 67 a9 ca 3c 36 ca 9c 3b
       0.011418512 0.0148610035 0.02473898 0.0047848476
0003a0 e5 1a 61 bd 84 a5 97 3c c5 05 48 3c de 58 fd bb
       -0.05495729 0.018511541 0.012208407 -0.007731541
0003b0 f3 c4 02 3c f8 ce 9d bc 65 1a 41 b9 df 06 30 bc
       0.007981527 -0.01926373 -0.00018415747 -0.010743826
0003c0 ae d9 fd 3c 0a 06 ad 39 ba 00 0d bd e5 42 e3 3b
       0.030987587 0.0003300163 -0.03442452 0.0069354647
0003d0 0d a1 7e 3c f6 77 c5 3c be 81 b4 bc ce 15 cc bc
       0.015541327 0.024105053 -0.022034522 -0.024912741
0003e0 a8 4f 7b bb 5f b3 cc 3c cf f9 0b 3b d2 7b b4 3c
       -0.003834704 0.024987875 0.0021358614 0.022031698
0003f0 26 60 02 3d ba 29 9c bc ad d9 fd bb d2 55 50 bc
       0.031829976 -0.019062866 -0.0077468962 -0.012715774

bias f4 [64]
000000 e2 10 45 bb 67 89 d7 bd 22 14 d1 bd 12 df f6 bd
       -0.0030069877 -0.10524254 -0.10208918 -0.12054266
000010 b4 8d 52 bc 4d a4 d2 3b 05 51 92 bd da 77 fe bc
       -0.0128511675 0.0064282776 -0.071443595 -0.031063009
000020 3d 0e 31 bc 9f 54 86 bd f8 c3 8f bd 79 54 e1 bc
       -0.010806617 -0.06559109 -0.070198 -0.0275061
000030 08 80 46 bd 51 3e 66 bc 46 56 ad bd e8 61 84 bc
       -0.048461944 -0.014052943 -0.08463721 -0.016159967
000040 11 b0 cc bc 1a 02 92 ba 73 92 60 bb 91 82 dc bd
       -0.024986299 -0.0011139542 -0.0034266978 -0.10767091
000050 69 8c e5 bb cb 54 81 bd db ad d3 bd ee 23 4c bd
       -0.0070052636 -0.06315001 -0.10335895 -0.049838953
000060 57 87 e5 bb 9f 77 73 bd 5d 3a 3c 3c d4 cf 39 bd
       -0.007004659 -0.05944025 0.011488524 -0.045364216
000070 b7 b2 01 bd 72 4f 6a 3d ef e2 b2 3c 50 9f 98 bd
       -0.031664576 0.05720467 0.021836726 -0.074522614
000080 3f 9b ac 38 8a 5d 58 bc 81 9c 05 bd f0 ac 62 bd
       8.230516e-05 -0.013205895 -0.032619957 -0.055340707
000090 7e f6 0a bd bb aa 63 bd 01 a8 db bd 84 0f b5 bc
       -0.03392648 -0.055582743 -0.107254036 -0.022102125
0000a0 be 22 bd ba ae 62 fc bc 18 1b 95 3b 9c 04 37 bd
       -0.001442991 -0.030808773 0.004550349 -0.04468213
0000b0 ed 3c 2c bd 66 d1 1e bd 0c 0f 90 3c 72 06 00 bd
       -0.04205029 -0.038773917 0.0175853 -0.031256147
0000c0 33 18 89 bd 34 b1 08 be 2a 7b c0 bc 23 a4 10 3b
       -0.06694069 -0.13348848 -0.02349623 0.002207049
0000d0 24 c4 21 bd a0 5d 61 bd ef ba 08 3d 8e c6 ca bd
       -0.039493695 -0.05502093 0.0333814 -0.099011526
0000e0 fd 5c 8c bc c9 4a 98 bd f9 d1 0c be e6 20 e2 bc
       -0.017134184 -0.07436139 -0.13751973 -0.027603578
0000f0 48 bb 5e bd 02 1f 31 bd b6 4a 9d bc b8 59 4e bd
       -0.054377824 -0.043242462 -0.019200664 -0.05037853

weight f4 [64, 1024]
000000 9e 8d 72 bc e5 11 ee 3b 63 90 10 3d eb 04 18 bd
       -0.014804272 0.007265317 0.035293948 -0.037114065
000010 32 3a b0 3c 1d 5b be 3b b3 4e c4 3b 0d 83 54 bd
       0.021512125 0.0058092014 0.005990827 -0.051882792
000020 d2 90 bf bc 3c 3f 7e bc d2 69 f4 3b c5 3e 01 bd
       -0.023384485 -0.015518006 0.007458904 -0.031554002
000030 f4 56 b8 3a 8d 80 86 bc 9f ff 8c bd 1b f2 31 bc
       0.0014064 -0.01641872 -0.06884693 -0.010860945
000040 a3 d1 f7 3a 64 3b 5c bc b4 5e 13 bb ed ef 33 bd
       0.0018907081 -0.013441894 -0.0022486867 -0.043929983
000050 36 60 9d 3c 0f ab 74 3c 9c 74 93 bc 03 93 8d bd
       0.019210916 0.014933362 -0.01799994 -0.06912806
000060 84 e2 4d 3c 4d 6e 6e 3b ef b5 91 3b cf c5 74 bc
       0.012566213 0.0036381662 0.004446737 -0.014939739
000070 a2 04 9a 3c e6 f0 03 3c 74 9c 56 3c fd 42 0f bc
       0.018801037 0.00805304 0.013098825 -0.008743999
000080 b6 1e ae 3b e4 81 a1 bc 5b f6 2b bd 17 8c 60 bc
       0.0053137196 -0.019715257 -0.04198299 -0.013705275
000090 96 40 af 3c ad ff 94 bd e0 8e 9d bd 75 e4 2a 3d
       0.021393102 -0.07275329 -0.07693267 0.04172178
0000a0 7e 24 f1 bc 33 88 61 3d 9c b3 36 bc 08 9c c5 3c
       -0.029436346 0.05506153 -0.011151221 0.024122253
0000b0 4f 80 c4 bc ea f3 72 ba d7 d3 76 3d c8 cb 8b 3c
       -0.023986964 -0.00092679134 0.06026062 0.017064944
0000c0 f5 b0 15 bd ea 5f 3f bc 21 1a 01 bd 41 0e 12 ba
       -0.036545713 -0.011680583 -0.03151906 -0.0005571582
0000d0 0b 05 06 bd c9 5e a7 ba 77 39 32 bd 10 01 4e 3c
       -0.032719653 -0.0012769337 -0.043511834 0.0125734955
0000e0 1f c5 95 bb ed 02 00 3d 7c eb 43 bd fd 3c 3d bc
       -0.004570618 0.03125279 -0.047831997 -0.011550185
0000f0 2b a6 15 3d f3 65 af bc 43 8a 15 3d 3a 51 b1 bc
       0.036535423 -0.021410918 0.03650881 -0.021645177
000100 50 b3 1b 3d 93 ed 4e bb f7 7a 3c bd 6b 20 09 bd
       0.038012803 -0.003157471 -0.046015706 -0.03347818
000110 d0 19 51 bc 2d 80 0c bc 7c 8e cd bc ec 5c 23 3c
       -0.012762502 -0.008575481 -0.025092356 0.009970885
000120 31 25 eb bc 7d fc eb bc f7 f1 f6 bc 5b fb 17 bc
       -0.028704258 -0.02880692 -0.030144675 -0.009276236
000130 8d a5 93 ba 3c 05 7c bc f1 b2 23 3d 06 d6 0c 3d
       -0.0011264548 -0.015382107 0.039965574 0.034383796
000140 90 8a 3c bc 2b b5 be bc 5b 8a cf ba 6b 00 51 bc
       -0.011507645 -0.023279747 -0.001583408 -0.012756447
000150 25 32 46 3d 7b 89 51 3d 3c f7 7a 3a 9e 78 de 3c
       0.048387665 0.051156502 0.0009573584 0.027157124
000160 97 7d b1 bc a2 3f 62 bd 95 dc 0f 3d 58 ff e0 3b
       -0.021666331 -0.055236466 0.035122473 0.006866377
000170 82 5a 84 bc 01 f2 d3 bc 53 24 04 bd 61 d2 f8 bc
       -0.016156439 -0.025872232 -0.032261204 -0.030373754
000180 fd 76 27 3d fa 2f 36 3d 1b 06 26 3d ef 5a 8c bc
       0.04088496 0.044479348 0.040533166 -0.017133204
000190 a0 28 5f 3c 22 e7 82 39 b5 91 3c 3c 8f 40 67 3c
       0.013620526 0.0002496774 0.011509349 0.014114513
0001a0 28 e2 32 bd 93 8d 2c bd 01 79 81 bd 56 5b ed 39
       -0.04367271 -0.042127203 -0.06321908 0.00045272213
0001b0 c7 94 0d bc 70 c4 b6 3b 7e e3 4e 3d d5 12 28 3d
       -0.008641428 0.0055776164 0.050509922 0.041033585
0001c0 43 8f 35 bb 49 ba 77 3c f0 52 5e 3c 91 05 22 ba
       -0.00277038 0.015120097 0.0135695785 -0.0006180639
0001d0 ee 44 be bc 8d 94 11 3c e3 55 ee bc 17 8d 92 bc
       -0.023226228 0.008885515 -0.029093688 -0.017889543
0001e0 a0 3c b1 bd 13 c4 ad 3c f8 e4 36 bc da 2a 72 3b
       -0.086541414 0.02121166 -0.011162989 0.003695181
0001f0 c1 14 b0 bc ca 8c f0 3b 22 f2 99 3c 5c b4 34 bd
       -0.021494271 0.007341002 0.018792216 -0.044117317
000200 59 9e 00 3c ff 47 61 3d b5 90 50 3d 27 0a 1a 3d
       0.007850253 0.0550003 0.050919253 0.03760734
000210 69 0d e5 bc 3b 6d bd 3c 65 3e c7 3b 87 90 1b 3c
       -0.027960496 0.023123374 0.006080436 0.009494907
000220 82 51 80 bc 05 02 bf b8 b4 a2 aa bc d3 a1 e3 3c
       -0.015663866 -9.107966e-05 -0.020829536 0.027787125
000230 d1 f6 12 bd b4 44 95 ba 21 ae 74 bb af be 99 bc
       -0.035879914 -0.0011388273 -0.0037335234 -0.018767683
000240 30 2d 16 bd 5d 89 19 3c 1a a8 f9 bc 3c 57 4c ba
       -0.036664188 0.009371129 -0.030475665 -0.00077949814
000250 dc 2f 2d bd 4f ee 32 3d 75 23 09 3d e3 6c 77 3b
       -0.04228197 0.0436843 0.03348108 0.003775411
000260 54 05 1e bd a6 9e f4 3b 6a 26 a6 3c 9f cc 8c bc
       -0.0385793 0.0074652014 0.02028199 -0.017187415
000270 48 d6 79 bd f6 14 57 bc f3 e9 67 bd 91 4b 61 bc
       -0.06099537 -0.013127556 -0.056619596 -0.013750927
000280 f0 c5 a6 3c d6 e4 bc 3c b5 fe fa 3c d9 00 6c ba
       0.020358056 0.023058336 0.030639032 -0.0009002812
000290 bb 6a 18 3c 60 87 6f bd 2c 1f fb bc a1 03 7b bd
       0.00930279 -0.058478713 -0.030654512 -0.061282758
0002a0 aa b6 23 bd 08 8f ad bc 10 2c 30 bc d8 f8 1b bc
       -0.039969124 -0.021186367 -0.010752693 -0.009519778
0002b0 11 34 06 3d d3 72 21 3d a1 54 c6 3c b4 02 04 3d
       0.0327645 0.039416146 0.024210276 0.03222914
0002c0 8c c9 67 3d ff 7f 05 3b 83 d2 26 3d 3a bf 70 3c
       0.056588694 0.002037048 0.040728103 0.014694029
0002d0 fd 1c a3 3c 0c b3 94 3c d9 4a ef 3b 31 c7 81 bc
       0.019911284 0.018151782 0.0073026237 -0.015842052
0002e0 42 a9 89 3c e8 a3 02 bd 86 ce ca bb e0 cb 02 bb
       0.016804341 -0.031894594 -0.0061891703 -0.0019957945
0002f0 cf 25 0a bc 32 80 4e 3b e3 3b 96 3c 2c fe f4 bb
       -0.008431866 0.0031509516 0.018339103 -0.0074765887
000300 3f 18 38 bd 35 d8 d1 3a 60 27 a4 ba a3 ec 8a bb
       -0.044944998 0.0016009869 -0.0012523942 -0.004239635
000310 38 63 08 bd 81 17 35 3d 0b 6b 91 bc 11 7e 56 bd
       -0.033297747 0.04421187 -0.017751237 -0.05236632
000320 7d c0 92 bd 5e 06 68 3d 37 de 6a 3d 24 ed da bc
       -0.071656205 0.056646697 0.057340827 -0.026724406
000330 92 02 1a bc 46 27 23 bc de 7c ae 3b d0 31 90 bd
       -0.009400027 -0.009958094 0.005324944 -0.07040751
000340 28 2c c6 bc 11 77 44 bd d6 a8 3a 3d f3 2b 25 bd
       -0.024190977 -0.047965113 0.04557117 -0.040325116
000350 0b de 88 bc cf 2a 35 3d f2 f8 c1 3c 21 fe e6 3c
       -0.01670744 0.04423028 0.023678277 0.02819735
000360 5c e7 0a bd a7 82 23 bc d0 56 2e bc d1 ca ce 3c
       -0.033912048 -0.00997988 -0.010640815 0.025243195
000370 c2 67 f6 bb 2e 06 c8 ba ac 08 9c 3c ea aa ae 3c
       -0.007519693 -0.0015260631 0.019047104 0.021321733
000380 a8 10 6c bc 72 73 12 3c 14 bd 54 3d a9 d9 d0 bc
       -0.014408268 0.008938657 0.05193813 -0.025494413
000390 73 43 38 3c 22 93 21 3c 86 bf 25 3d bc 98 5c 3c
       0.01124655 0.009861739 0.040465854 0.013464149
0003a0 7f 56 2a 3c 92 91 61 bc e5 cd 3e 3c 33 9d 03 3d
       0.010396599 -0.013767617 0.011645769 0.03213234
0003b0 8e 34 3b 3d e8 96 28 bd b5 09 94 bc 72 7f 90 3c
       0.045704417 -0.04115954 -0.018071035 0.017638896
0003c0 12 b6 51 bc db 80 6c bc 4b 59 88 bb 0b 8e d9 bc
       -0.012799757 -0.014435018 -0.004161035 -0.02655699
0003d0 19 9f 66 3c 75 78 44 3d 82 b5 97 3b f3 c5 87 bc
       0.014076018 0.04796644 0.0046297917 -0.016573882
0003e0 f8 a5 ee 3c 8e 34 34 bd 07 d0 b9 3a 19 e8 dc 3c
       0.029131874 -0.043995433 0.0014176377 0.026966142
0003f0 c9 fc 2d 3b f0 a9 52 bd 7b a7 c4 bb bc 4e c4 ba
       0.0026548377 -0.051431596 -0.0060014105 -0.0014977078

bias f4 [64]
000000 21 82 6c 3c 25 b0 a7 3b 58 f4 c6 39 31 ad c4 bc
       0.014435322 0.0051174336 0.00037947553 -0.024008365
000010 90 2b 0c 3c f5 69 86 3c 68 b5 34 bc 81 32 81 bc
       0.008555308 0.016407946 -0.011029579 -0.015771152
000020 ec aa 6e 3c c7 18 29 bc b9 fb 25 3d c4 6e 6b 3c
       0.014567118 -0.010320849 0.040523265 0.01436967
000030 3d ff c3 3b 92 e4 81 bc 38 30 56 bc b7 b2 0b 3d
       0.0059813545 -0.015856061 -0.01307302 0.034105983
000040 1d a6 3d bd 05 70 14 bd bb 64 13 3d f2 63 bd bd
       -0.046300996 -0.036239643 0.035984736 -0.09247579
000050 c2 23 7b 3b c0 e1 ac 3d 18 0d 89 bc aa ee 30 bd
       0.0038320874 0.08441496 -0.016729876 -0.043196358
000060 45 5e da 3c f9 ab e1 bc f5 a9 06 3d 36 98 f7 39
       0.02665628 -0.027547823 0.032876927 0.00047224917
000070 b5 34 2b bd 5f b3 f7 bc 00 58 9a bd b7 8d 33 3c
       -0.041798312 -0.030236898 -0.07536316 0.01095908
000080 c2 69 25 3d 53 48 83 bd 1c cb 08 bd 42 73 f1 ba
       0.04038406 -0.06410279 -0.033396825 -0.001842119
000090 26 49 10 bc 6d 4b a5 bc d7 51 64 bb e6 e4 a3 3d
       -0.008806502 -0.020177567 -0.003483882 0.08002643
0000a0 0f d7 ae bc b3 2d a7 3c e9 e6 54 3c 58 6a fd bc
       -0.021342782 0.020407533 0.012994506 -0.030934498
0000b0 01 82 0f 3d 41 e5 11 3d 81 35 c7 3c bf 00 e6 bc
       0.03503609 0.035619024 0.024317505 -0.028076528
0000c0 48 03 8d bd d8 49 d0 3b cd a4 76 3d 44 5d 85 3b
       -0.068853915 0.006356459 0.06021576 0.004069956
0000d0 5a c2 08 bc a3 c9 94 bd 73 09 1a bd 79 20 05 3d
       -0.008347118 -0.07265022 -0.037606668 0.03250167
0000e0 1d e2 52 bc ad 17 7e 3c 61 8e d8 3a 3b 86 3f 3c
       -0.012871292 0.015508574 0.0016521924 0.011689718
0000f0 fe dc 1a 3b b3 db 00 bd 6f cc 39 3c 59 61 a8 3b
       0.0023630257 -0.03145952 0.011340245 0.005138558

weight f4 [10, 64]
000000 c6 e3 b0 be 43 a9 05 bd 13 5c 70 bd 84 18 08 3e
       -0.34548777 -0.032632124 -0.05868156 0.13290602
000010 1a 6b 83 be f7 14 57 3c bf ad 46 be b2 c2 7c bd
       -0.2566765 0.013127557 -0.19402216 -0.061709113
000020 20 b9 2f bd 7f a1 a7 bd 05 2a 11 be 53 61 63 3d
       -0.04290116 -0.081851 -0.14176185 0.055512737
000030 b0 4e 93 3e 58 b1 0d 3d eb 69 65 3d d2 0c c5 bc
       0.2877097 0.034592956 0.056009214 -0.024053965
000040 73 b8 65 3e c6 76 2a 3e e0 ac 95 be 8e 7e 5f 3e
       0.22433643 0.16646871 -0.29233456 0.2182562
000050 14 db c5 3d 01 46 97 bd 08 a4 1a 3e fa 59 c4 3d
       0.096609265 -0.07386399 0.15101635 0.09587474
000060 be 10 b4 bd 22 3f 11 3e 06 15 83 be 4e f7 10 3e
       -0.08792256 0.1418424 -0.25601977 0.14156839
000070 d3 69 63 3e f2 2f 12 bd 01 9d 47 3e 64 7c cd bd
       0.22208337 -0.035690255 0.19493486 -0.10033491
000080 fa 9a 8d be f0 7b e5 bd 73 a6 0b 3e f1 4e 1e 3e
       -0.276573 -0.1120528 0.13637714 0.15459801
000090 a5 79 84 3e f3 03 41 3d 4c ce 07 3d e4 20 0f bc
       0.25874057 0.047122907 0.033155724 -0.008735869
0000a0 7d 46 36 3d d5 51 17 be de 62 cf bc c5 ad 81 3e
       0.044500817 -0.1477731 -0.025315698 0.25327888
0000b0 ef 0c bf ba 6e 96 08 bc 30 12 c6 3c 1c 70 b0 bd
       -0.0014575998 -0.0083366465 0.024178594 -0.08615133
0000c0 bd d8 c6 bc 61 d5 e2 3d cb 3b 6f be 4a 77 6d be
       -0.02427327 0.11075855 -0.23362653 -0.23190036
0000d0 49 04 22 3e 8f d5 c1 bd a7 05 65 bd 6f f2 7e be
       0.15821947 -0.09464561 -0.055913594 -0.24897169
0000e0 01 34 06 3e c1 77 58 bd 2d 84 64 3e cc 35 09 3c
       0.13105775 -0.05284858 0.22316046 0.008374643
0000f0 c5 44 0a be bc 08 32 3e 09 08 b9 3d 10 4b 8f bd
       -0.13502796 0.17386144 0.09034736 -0.06996739
000100 06 ea 05 bc f3 99 82 3e a4 5a cf bd e3 47 5f 3d
       -0.008173471 0.2550808 -0.1012471 0.054511916
000110 1c dd 8b bc 70 67 e5 3d e3 b3 da 3a c4 ee 06 3d
       -0.017073207 0.1120137 0.001668569 0.03294255
000120 ac 1d 3a be 3a f3 33 3e 76 8e ad 3d ce d4 42 be
       -0.18175381 0.17573252 0.08474438 -0.19026491
000130 6c f6 70 bd a8 1d af bc 67 56 fb 3d 7d cb c5 3c
       -0.058828756 -0.021376446 0.12272339 0.024144882
000140 e1 f7 63 3e 4a d0 d9 bd ea 61 96 3c e4 47 6f 3e
       0.22262527 -0.10635431 0.018357236 0.23367268
000150 2d 82 e0 3d 72 16 14 be 26 09 55 be 68 34 51 be
       0.10962329 -0.14461687 -0.20804271 -0.20430148
000160 61 6b c6 3d e3 a3 20 3e 85 1f 4d 3d 68 d4 8b 3e
       0.0968845 0.15687518 0.050078887 0.2731049
000170 d6 6c 0e 3e cf 69 d8 bd a1 ad 63 3e fb f0 a3 3e
       0.13908705 -0.105670564 0.22234203 0.3201979
000180 eb 63 0c be 3a 7e d9 3c a0 95 a5 be 21 77 44 be
       -0.1370999 0.026549447 -0.32340717 -0.19186069
000190 fd 1c 1d 3e 28 86 54 bc 7c f5 21 3e 37 b5 93 be
       0.1534309 -0.0129714385 0.15816301 -0.28849193
0001a0 48 69 1c be 6e c7 27 be 93 c0 b5 bd dc 60 45 3e
       -0.15274537 -0.1638467 -0.08874621 0.1927523
0001b0 fc 4c 3f bc 15 b3 aa be 2e 5e b7 3e 33 46 a4 3e
       -0.011676069 -0.33339754 0.3581404 0.32084808
0001c0 1f 3b 76 3c fe 11 2b 3d 7e e3 8a ba 00 17 24 be
       0.015028744 0.041765206 -0.0010596362 -0.16024399
0001d0 96 81 78 be 4a 6d cc 3d 6b 2a 20 3d 7f 7b 98 3e
       -0.24268183 0.09981783 0.039102953 0.2978172
0001e0 45 4d 04 be 67 21 2f 3e a0 03 6c bc 7e 26 87 3e
       -0.12920101 0.17102586 -0.014405161 0.26396555
0001f0 58 56 71 3e c1 b6 a8 be 8a 1b 54 be 34 c9 76 3e
       0.23568094 -0.3295193 -0.2071363 0.2410019
000200 ac 1c a3 3d de 6f 36 3e 03 6a 3e bd 68 4b ad be
       0.07964453 0.17816111 -0.04648782 -0.33846593
000210 78 d2 2b 3c 85 4f eb 3d bb a4 13 3d 3e b0 0b 3e
       0.010487191 0.114897765 0.03604577 0.1364145
000220 e6 86 a8 3d a2 00 41 be 08 53 40 be 9d 6c 1c be
       0.08228855 -0.18847898 -0.18781674 -0.15275808
000230 29 e8 70 3e 10 08 78 3d 1e e2 7e bd cc f8 7a be
       0.23526062 0.060554564 -0.06222736 -0.24508971
000240 9a b7 4a bd 95 12 8b 39 14 99 a3 bd fb 99 35 3e
       -0.049491502 0.0002652599 -0.07988182 0.1773452
000250 02 ae 3a 3e e3 9d bc 3e 85 00 98 3c a2 48 71 3d
       0.18230441 0.36839208 0.018554935 0.05890716
000260 a4 88 7e be 30 35 b9 bc d3 e4 eb 3d dd 63 63 3d
       -0.24856812 -0.02260837 0.11518254 0.05551516
000270 1d 76 29 3e aa 00 49 3e e7 a0 80 3d dd 57 47 be
       0.16548963 0.1962916 0.0628069 -0.19467111
000280 08 cc 0a 3e 03 4e 04 be aa 8b 40 be 9d 3a dd bd
       0.13554394 -0.12920384 -0.18803278 -0.10802195
000290 23 98 82 be fb 2e 8f bc 06 50 ab bd 1a a5 97 3d
       -0.25506696 -0.017478457 -0.08364873 0.074045375
0002a0 42 c3 56 3e fe 0b d5 bd 5b 41 c5 bd 74 66 b5 bd
       0.20972922 -0.10402678 -0.09631606 -0.08857432
0002b0 2a c2 5e 3e 07 7e 98 3e 2d 77 35 be 22 48 f7 bd
       0.21753755 0.2978365 -0.17721243 -0.12074305
0002c0 fd fd fd 3c a2 8f 75 3d 3f d6 eb 3d 29 9d 22 be
       0.0310049 0.059951432 0.115154736 -0.15880264
0002d0 60 d3 18 3d 80 be 29 bd 9a 33 84 bc 30 bf fa bb
       0.037310958 -0.04144144 -0.016137887 -0.007652186
0002e0 4d 1b dd 3d 2b ba 8f be ed ad 85 3d 82 6c 57 be
       0.10796223 -0.28071722 0.06527314 -0.21037486
0002f0 f0 7f 5f bd db 7c 51 3e 12 4c 83 3e 35 a3 d4 3d
       -0.05456537 0.20457785 0.25643975 0.10382692
000300 bf 7f 66 3e 1f 48 d4 3d 53 08 51 3d 77 f5 df bd
       0.22509669 0.103653185 0.05103333 -0.109354906
000310 f9 9d c9 bd ae 16 5b 3d 57 b4 1d 3e 7d 81 ab bb
       -0.09844584 0.053488426 0.15400825 -0.005233942
000320 93 81 cc 3d b5 10 fa bc b3 57 f2 3b 05 0a 62 3e
       0.09985652 -0.030525545 0.0073957085 0.22074135
000330 62 d7 ba bd 8b c0 05 be d7 5f 15 be 81 b1 ef 3c
       -0.09123112 -0.1306173 -0.14587341 0.029259445
000340 69 aa 07 be 9e 53 b8 bd b2 b1 40 3e 0d e8 c4 bd
       -0.132486 -0.09000324 0.18817785 -0.09614573
000350 df b2 48 be 37 d7 13 3c df 4f b6 bd dc f7 80 3e
       -0.19599484 0.009023479 -0.08901953 0.25189102
000360 66 6e da 3d 6c 62 ee bb 06 27 12 be 4e 47 cd 3d
       0.10665588 -0.0072749164 -0.14272699 0.10023366
000370 5f 23 1f 3d c0 9e 12 be ad f7 e3 bd b0 fb 18 be
       0.038852092 -0.14318371 -0.11131225 -0.14939761
000380 18 b6 79 bd 79 ee 01 bd 6b 51 28 3e c2 5a 88 3d
       -0.060964674 -0.031721566 0.16437308 0.06657936
000390 2a b3 16 be 3b 1f 88 3d 86 0e 30 bc 63 5d 8d 3c
       -0.14716783 0.06646582 -0.01074565 0.017256444
0003a0 fc c2 65 b9 3f 53 9e 3e 24 3d d3 3c 6e 53 20 be
       -0.00021911779 0.30922887 0.02578599 -0.15656826
0003b0 c9 1c 07 3e 63 c9 40 3d 0e e3 a5 bd 75 c0 0a 3e
       0.13194574 0.047067057 -0.08099948 0.13549979
0003c0 f9 d3 d1 bd ec 38 fe bd 77 39 8e bd f8 e5 c8 bd
       -0.10245509 -0.12413201 -0.06944554 -0.09809488
0003d0 fb 08 9d bc 22 c1 43 be ae 03 fd bd 37 8c 96 3d
       -0.019169321 -0.19116643 -0.123542175 0.073509626
0003e0 02 f8 94 bc 20 2d 66 be dc 2a 68 3c 76 29 54 3e
       -0.018184666 -0.22478151 0.014170375 0.20718941
0003f0 fc 48 e8 bd a5 4a 0a 3c 34 89 1f be c1 84 3c 3b
       -0.11342046 0.008440648 -0.15579683 0.002876565

bias f4 [10]
000000 cd 37 8a bd 8b 0d 25 bd 30 ba d2 bc 1d f2 46 bd
       -0.067489244 -0.04029612 -0.025723547 -0.04857074
000010 0b ff 28 3d 21 04 bf bc 33 9d 02 3e 7d b3 3b 3b
       0.041258853 -0.023317399 0.12755279 0.002864092
000020 6c 92 02 bc 92 ee 81 3d
       -0.00796948 0.06344332
