dl_learn/ff_nmodel/ff_nm_0.pth (torch, 587399 bytes, 10 tensors)

weight f4 [32, 3, 5, 5]
-0.08061116 -0.06292937 -0.04993704 0.0144529855 -0.019812532 0.092694566 -0.12188168 -0.037267722
-0.11472326 0.07220234 0.0366302 -0.07897693 -0.041522246 0.02233532 -0.050588567 0.066635594
-0.12120695 -0.111714035 0.009075779 -0.049928382 -0.015210015 -0.01978514 -0.011091053 -0.062171772
0.042165224 0.066354506 -0.1092705 0.08541931 0.00074670266 0.0062795607 -0.03712417 0.046396468
0.0016958044 -0.03659702 0.0013661259 -0.029033644 0.0550789 0.079726845 0.047524486 0.044948313
-0.03710632 -0.056246072 0.08241683 -0.028336937 0.013175466 -0.05858056 0.030745886 0.024338448
-0.08734759 0.042898297 0.10953008 0.086659 0.0413447 0.07631746 -0.02103954 -0.04538573
-0.08439697 -0.06689189 0.024726972 0.05598021 -0.0012793406 0.022633953 0.11465162 -0.012454878
0.09272624 0.10577452 0.069195434 0.027525833 -0.08138566 -0.09029022 0.07231405 0.048500955
0.054801617 -0.01578268 0.0024024036 0.05513915 0.04232137 -0.077631004 -0.11149041 0.09912697
-0.045854736 -0.07932159 -0.012035775 0.07104 0.036860745 -0.091168225 0.020427931 -0.02529574
-0.10645064 -0.12341647 -0.10221695 -0.09810493 0.052618958 0.028693331 -0.025788859 -0.0015579043
-0.046508998 0.08392613 -0.017631305 -0.04165781 0.1068336 0.10798277 -0.07750552 0.0690759
-0.01007415 0.0460907 0.041560445 -0.111859575 -0.053577222 0.07172931 -0.12139539 0.014767906
-0.058988318 0.04782702 0.019685728 -0.028912226 -0.10890877 0.09826553 -0.081904024 -0.035337918
0.0027328585 0.039815683 0.03018795 -0.0046783877 0.076580375 0.08878539 -0.02126923 0.02720974
0.10820476 -0.05614084 -0.058111675 0.054957584 -0.014768937 0.06279572 0.05080963 -0.027053494
-0.1096864 -0.09287473 0.10632737 0.067415096 -0.048849344 -0.00235594 0.06960842 -0.056611445
-0.039781056 -0.0067467205 0.09211531 -0.016906792 0.024167085 0.04611178 0.05395793 -0.10770261
0.052597888 0.045823444 0.05034096 -0.07791983 -0.10098584 0.04677283 0.019905994 0.0008594628
-0.10671417 -0.12374081 -0.07770638 -0.039311033 0.07113911 0.030408373 0.021448847 -0.07290043
-0.09533034 -0.12200181 -0.062286064 -0.03145028 -0.02082745 0.07422938 0.051758092 -0.06204167
-0.044872012 -0.10645622 -0.028308736 -0.03811719 0.031527977 -0.030607317 0.07894868 -0.055179708
0.046171356 0.02185087 -0.0005816276 0.06025834 -0.0666532 -0.10898837 0.012777011 -0.10695662
0.06466265 0.0358915 0.012682602 -0.11938826 0.05417239 0.06590449 -0.0931676 -0.07548675
0.013357883 0.044750504 0.10449083 0.06735147 -0.033298787 0.00677755 -0.015235993 -0.028412424
0.10539597 -0.10690796 -0.0669807 0.08881454 0.08755262 0.0005344249 0.10291625 0.070036225
-0.02106662 -0.065104246 0.038709976 0.06353073 0.10018525 -0.031047342 -0.06362571 0.03940914
0.0029749072 0.06444331 0.075906955 -0.10187598 -0.10536758 -0.031465333 0.11669718 0.0997893
0.04131261 -0.006362133 0.0065662647 -0.04440312 0.012210461 -0.032176856 -0.0011043492 -0.09301861
0.09185617 0.072867855 0.030984066 0.11685587 -0.10342432 0.06361661 -0.04977525 -0.03586889
-0.052552316 -0.0816155 -0.07090092 0.114157066 -0.08802419 0.014244035 0.11054811 0.10851175
00000000: 7717 a5bd 1de1 80bd c88a 4cbd 37cc 6c3c
00000010: e44d a2bc a6d6 bd3d 1a9d f9bd 0aa6 18bd
00000020: 07f4 eabd d2de 933d 8c09 163d a8be a1bd
00000030: 3b13 2abd 90f8 b63c f535 4fbd 3e78 883d
00000040: 593b f8bd 54ca e4bd 93b2 143c b481 4cbd
00000050: 6d33 79bc 7214 a2bc 3fb7 35bc d4a7 7ebd
00000060: 71b5 2c3d dfe4 873d 36c9 dfbd 52f0 ae3d
00000070: 5ebe 433a c6c4 cd3b 840f 18bd 390a 3e3d
00000080: c145 de3a c2e6 15bd 940f b33a f7d7 edbc
00000090: 6a9a 613d d447 a33d 09a9 423d b91b 383d
000000a0: ccfc 17bd 4862 66bd 28ca a83d dd22 e8bc
000000b0: e9dd 573c 2bf2 6fbd ccde fb3c 6d61 c73c
000000c0: 4be3 b2bd 20b6 2f3d 4e51 e03d 467a b13d
000000d0: 0f59 293d 544c 9c3d 1d5b acbc 63e6 39bd
000000e0: 52d8 acbd 9dfe 88bd 3890 ca3c 814b 653d
000000f0: 8caf a7ba d76a b93c 78ce ea3d 8b0f 4cbc
00000100: 41e7 bd3d 50a0 d83d 56b6 8d3d db7d e13c
00000110: 86ad a6bd 14ea b8bd 6319 943d f0a8 463d
00000120: a977 603d ae4a 81bc a571 1d3b 97d9 613d
00000130: 2c59 2d3d 01fd 9ebd 1655 e4bd 1503 cb3d
00000140: 2dd2 3bbd 5c73 a2bd b331 45bc 6b7d 913d
00000150: 4bfb 163d 68b6 babd 7a58 a73c 0339 cfbc
00000160: cb02 dabd c6c1 fcbd 1f57 d1bd 3deb c8bd
00000170: fa86 573d 470e eb3c 2843 d3bc 9832 ccba
00000180: 3880 3ebd 76e1 ab3d 876f 90bc 61a1 2abd
00000190: 93cb da3d 1226 dd3d 37bb 9ebd aa77 8d3d
000001a0: 0c0e 25bc 9ac9 3c3d 493b 2a3d a216 e5bd
000001b0: ca73 5bbd d1e6 923d 259e f8bd 16f5 713c
000001c0: bc9d 71bd 44e6 433d f743 a13c 55d9 ecbc
000001d0: 900b dfbd 703f c93d 4cbd a7bd 7ebe 10bd
000001e0: c219 333b c515 233d b84c f73c 294d 99bb
000001f0: 2cd6 9c3d 1dd5 b53d cf3c aebc f6e6 de3c
00000200: 759a dd3d f0f3 65bd 8206 6ebd 341b 613d
00000210: 69f9 71bc 0b9b 803d c21d 503d 4a9f ddbc
00000220: 43a3 e0bd 1b35 bebd 2ac2 d93d ed10 8a3d
00000230: 4016 48bd 1d66 1abb dc8e 8e3d 67e1 67bd
00000240: 76f1 22bd 9813 ddbb f4a6 bc3d 1d80 8abc
00000250: 0dfa c53c b5df 3c3d fe02 5d3d 3093 dcbd
00000260: e270 573d 5db1 3b3d 5332 4e3d 6f94 9fbd
00000270: aad1 cebd de94 3f3d e511 a33c 924d 613a
00000280: f58c dabd d26b fdbd 8624 9fbd 9b04 21bd
00000290: 62b1 913d fb1a f93c 7eb5 af3c d24c 95bd
000002a0: 8e3c c3bd 16dc f9bd ac1f 7fbd 02d2 00bd
000002b0: 549e aabc 9305 983d 4b00 543d 681f 7ebd
000002c0: b7cb 37bd b805 dabd b9e7 e7bc c520 1cbd
000002d0: 7b23 013d 32bc fabc d8af a13d 1e04 62bd
000002e0: 2d1e 3d3d 9900 b33c 5e78 18ba 73d1 763d
000002f0: 7981 88bd 4b35 dfbd ab56 513c 130c dbbd
00000300: da6d 843d f702 133d b0ca 4f3c d581 f4bd
00000310: dee3 5d3d eff8 863d a8ce bebd cc98 9abd
00000320: 06db 5a3c 4e4c 373d 4aff d53d 91ef 893d
00000330: 4f64 08bd 3616 de3b 63a0 79bc 2cc1 e8bc
00000340: d8d9 d73d 8ff2 dabd 2d2d 89bd 66e4 b53d
00000350: ca4e b33d a618 0c3a c1c5 d23d 276f 8f3d
00000360: e793 acbc 6055 85bd 5a8e 1e3d 661c 823d
00000370: ed2d cd3d ff56 febc 324e 82bd 7a6b 213d
00000380: a9f6 423b dbfa 833d 1b75 9b3d 5ba4 d0bd
00000390: f5ca d7bd cbe1 00bd eefe ee3d 555e cc3d
000003a0: 6937 293d 7179 d0bb d229 d73b 0ce0 35bd
000003b0: 630e 483c e1cb 03bd cfbf 90ba 8a80 bebd
000003c0: 161f bc3d be3b 953d 4cd2 fd3c 2152 ef3d
000003d0: 21d0 d3bd 6d49 823d 22e1 4bbd 42eb 12bd
000003e0: 1941 57bd 0726 a7bd 8034 91bd 2ecb e93d
000003f0: 0746 b4bd d05f 693c 0c67 e23d 693b de3d

bias f4 [32]
-0.049641397 0.05290146 0.019818876 -0.011733224 0.12493134 0.03599628 -0.07182472 0.018738765
-0.059222512 0.10329296 0.0066264602 0.100301705 0.07270919 -0.028416872 0.09790743 0.058643002
-0.08208431 0.05101398 0.05764681 -0.0027667684 -0.03792848 0.043513335 -0.05276444 -0.1344699
-0.04214987 0.08679544 -0.07737538 -0.008915247 -0.051686067 -0.05339814 -0.04006141 -0.056931447
00000000: c754 4bbd 34af 583d 325b a23c b53c 40bc
00000010: 01dc ff3d d670 133d d718 93bd 0a82 993c
00000020: 4e93 72bd 428b d33d c722 d93b fb6a cd3d
00000030: 8ee8 943d 80ca e8bc b183 c83d a533 703d
00000040: d21b a8bd 09f4 503d 101f 6c3d ac52 35bb
00000050: e55a 1bbd 0a3b 323d 871f 58bd 7ab2 09be
00000060: 58a5 2cbd cfc1 b13d fc76 9ebd 4211 12bc
00000070: c5b4 53bd 02b8 5abd 6f17 24bd f330 69bd

weight f4 [32, 32, 5, 5]
0.016548255 0.0127402935 0.020931669 -0.025873775 -0.039770324 -5.549664e-05 0.002293025 0.017146934
0.003011341 0.005307214 -0.010038468 0.003603374 0.01135978 -0.025007885 -0.02630839 0.0130158365
-0.00039140595 -0.0057071624 0.018898051 -0.01732474 0.004262113 -0.016432658 0.019406002 0.0071321107
-0.037652288 0.018862745 -0.004267257 0.01604426 0.020380769 -0.02357969 0.032768227 0.029307725
0.026343565 0.013609892 0.02408309 -0.027261114 0.015923562 -0.015342843 -0.018101476 -0.028282845
0.021467505 0.0059207357 -0.036489256 -0.006553456 -0.028853757 -0.009931274 -0.014543832 0.022263853
0.027736286 -0.008040785 0.020279601 0.00033398124 -0.026442356 0.016514251 0.015454694 0.0037267331
0.0026855383 0.013607781 -0.023505935 -0.0022022084 0.027075078 -0.015787534 0.010366262 0.0018434912
-0.03440118 -0.007776861 -0.005559533 0.0183803 -0.00026426057 0.0040884474 0.014908015 -0.015421775
-0.028708631 0.015617488 0.017921392 -0.002888962 0.008211841 0.0069330498 0.02748872 -0.033234004
0.029329272 -0.018312309 -0.022160513 0.019320376 0.026280114 -0.032141626 -0.026535856 0.008567228
-0.029568307 0.0022760858 0.019993689 -0.0053003235 -0.034009047 0.022174675 0.025174942 -0.007423834
-0.006057913 0.034991153 -0.0024071988 0.02577463 0.010525162 0.030457083 -0.006932168 -0.0015048013
0.04095221 0.017456522 0.029683767 -0.019754391 0.015294584 0.029820353 -0.011081924 -0.0153113315
0.028515855 -0.030851282 0.012128121 -0.015669955 0.038303223 0.0028634781 -0.00481708 0.038012985
0.009644419 0.039119363 0.03374007 -0.022050563 0.012403556 0.012442184 0.017007988 0.030663317
0.0028871777 -0.0046157255 0.014158321 -0.01144108 -0.030424565 -0.035069138 -0.013733683 -0.0155833075
0.011004973 0.0011684631 -0.014171376 -0.009625289 -0.008157938 -0.004679356 0.0015019875 -0.018593594
-0.014804748 -0.023359051 0.021701459 0.029641844 0.014457588 0.033760726 0.008073388 -0.041095734
-0.010966784 -0.010170682 -0.03730146 -0.033231884 -0.0011754223 -0.023095457 -0.019560082 -0.01580753
0.0030533094 -0.019578487 -0.030548874 -0.044141408 -0.03313481 0.02038183 -0.00030986045 0.025229922
-0.014174845 0.0252546 -0.02517259 -0.0005278132 -0.04173136 -0.013551128 -0.0057979473 0.0017112689
0.02746257 0.030714303 0.024718244 0.052428227 0.035587627 0.005039738 -0.015820798 -0.012435127
0.0022707486 0.024774589 -0.015493146 -0.01096634 0.015343493 0.0016083319 -0.025284354 -0.03383464
0.033787545 -0.013950962 0.019681294 -0.012882644 -0.03077579 -0.0047186827 0.027794655 -0.007392545
0.024688989 0.008364943 -0.02450688 -0.028127372 -0.03093321 0.028859174 0.023337025 -0.027274279
-0.00085248577 0.023392823 0.015428336 -0.0028871556 -0.0039362395 0.012738549 0.012192296 0.0023976562
0.02953918 -0.031385142 0.03075028 -0.0319213 0.02304275 -0.019407757 -0.03778244 -0.009375274
0.029628005 0.030193368 0.0066727567 0.0073496406 -0.004100941 -0.026630769 0.017975533 0.019754676
0.0014719272 0.0027543607 0.015052465 0.042277705 -0.00064586033 0.0113207605 -0.021258336 0.016982792
0.017440852 0.013599049 -0.015374687 0.019362004 0.026554702 -0.007167033 0.005303005 -0.014650504
-0.012703982 0.02161275 0.038039416 0.010710527 0.0048736497 -0.016863111 0.0153013 0.0015243836
00000000: 3590 873c aabc 503c e478 ab3c 3df5 d3bc
00000010: 35e6 22bd 10c5 68b8 9346 163b ba77 8c3c
00000020: eb59 453b 23e8 ad3b 6378 24bc 9526 6c3b
00000030: 5f1e 3a3c 56dd ccbc b184 d7bc 6040 553c
00000040: 9e35 cdb9 2603 bbbb 16d0 9a3c 9dec 8dbc
00000050: 32a9 8b3b c89d 86bc 56f9 9e3c 7bb4 e93b
00000060: 4939 1abd 0b86 9a3c 59d4 8bbb 406f 833c
00000070: 92f5 a63c 322a c1bc fa37 063d c116 f03c
00000080: 76ce d73c 06fc 5e3c e649 c53c b352 dfbc
00000090: 2172 823c 8c60 7bbc 8c49 94bc 6db1 e7bc
000000a0: 9fdc af3c bb02 c23b c275 15bd 60be d6bb
000000b0: b75e ecbc c8b6 22bc 4149 6ebc af62 b63c
000000c0: 3537 e33c 7fbd 03bc 6821 a63c 341a af39
000000d0: a49d d8bc e548 873c af35 7d3c 353c 743b
000000e0: dbff 2f3b 2cf3 5e3c 858f c0bc ed52 10bb
000000f0: 8ecc dd3c dc54 81bc 41d7 293c 4da1 f13a
00000100: 40e8 0cbd 0ad5 febb be2c b6bb 4892 963c
00000110: 748c 8ab9 62f8 853b bf40 743c 9dab 7cbc
00000120: 5d2e ebbc 7ee0 7f3c e2cf 923c bd54 3dbb
00000130: f58a 063c a32e e33b 0630 e13c 6120 08bd
00000140: f143 f03c b203 96bc f789 b5bc c445 9e3c
00000150: 6549 d73c f0a6 03bd b961 d9bc 8f5d 0c3c
00000160: 3c39 f2bc 622a 153b cec9 a33c 56ae adbb
00000170: 124d 0bbd aaa7 b53c ae3b ce3c a243 f3bb
00000180: 7581 c6bb e252 0f3d 18c2 1dbb 5125 d33c
00000190: bb71 2c3c 2281 f93c 3d27 e3bb c13c c5ba
000001a0: 81bd 273d fb00 8f3c 5f2b f33c f6d3 a1bc
000001b0: 2396 7a3c d049 f43c f590 35bc 61dc 7abc
000001c0: 159a e93c d4bb fcbc 07b5 463c 475e 80bc
000001d0: d7e3 1c3d 31a9 3b3b 99d8 9dbb 81b3 1b3d
000001e0: a003 1e3c a03b 203d 0733 0a3d 62a3 b4bc
000001f0: 4938 4b3c 4dda 4b3c 5654 8b3c a331 fb3c
00000200: ce36 3d3b 833f 97bb 4df8 673c 5e73 3bbc
00000210: f03c f9bc a8a4 0fbd 3e03 61bc 2151 7fbc
00000220: 344e 343c 1e27 993a 0f2f 68bc 63b3 1dbc
00000230: dfa8 05bc 4855 99bb 56de c43a 9851 98bc
00000240: 9d8f 72bc 7b5b bfbc 42c7 b13c 74d3 f23c
00000250: 85df 6c3c b048 0a3d 3e46 043c 0054 28bd
00000260: 07ae 33bc efa2 26bc 6ac9 18bd 281e 08bd
00000270: a110 9aba af32 bdbc 773c a0bc cb7e 81bc
00000280: 081a 483b 1063 a0bc a241 fabc 9fcd 34bd
00000290: 5eb8 07bd ccf7 a63c c474 a2b9 fbae ce3c
000002a0: 9c3d 68bc bce2 ce3c bf36 cebc f25c 0aba
000002b0: 81ee 2abd 8d05 5ebc b5fc bdbb a84c e03a
000002c0: 2ff9 e03c 909c fb3c ea7d ca3c fbbe 563d
000002d0: 55c4 113d 6324 a53b 9e9a 81bc b4bc 4bbc
000002e0: d7d0 143b 14f4 ca3c f7d6 7dbc 2aac 33bc
000002f0: 4663 7b3c aace d23a 2221 cfbc 3196 0abd
00000300: cf64 0a3d 9392 64bc aa3a a13c ba11 53bc
00000310: 821d fcbc 2e9f 9abb 9eb1 e33c 2a3d f2bb
00000320: 9040 ca3c 1d0d 093c a7c2 c8bc 606b e6bc
00000330: a567 fdbc 136a ec3c 4a2d bf3c 4f6e dfbc
00000340: 5a79 5fba 4ea2 bf3c 22c7 7c3c 6f36 3dbb
00000350: 92fb 80bb 59b5 503c 32c2 473c ff21 1d3b
00000360: 27fc f13c b58d 00bd 03e8 fb3c e9bf 02bd
00000370: 26c4 bc3c 04fd 9ebc c3c1 1abd c09a 19bc
00000380: 6eb6 f23c 1558 f73c 24a7 da3b 41d5 f03b
00000390: 3061 86bb c528 dabc 6d41 933c 8fd4 a13c
000003a0: aeed c03a 8182 343b 9d9e 763c 632b 2d3d
000003b0: f44e 29ba b67a 393c f625 aebc 7f1f 8b3c
000003c0: 1ee0 8e3c 8cce 5e3c 1ce6 7bbc 119d 9e3c
000003d0: 3f89 d93c 6ed9 eabb d5c4 ad3b ab08 70bc
000003e0: 5d24 50bc 390d b13c 38cf 1b3d 357b 2f3c
000003f0: 23b3 9f3b 8224 8abc 4eb2 7a3c d3cd c73a

bias f4 [32]
0.025634157 0.015073135 -0.043286238 0.0053065214 -0.012851247 -0.010534249 -0.015145274 0.0019063851
-0.019308405 0.007918125 0.004784664 -0.055908017 0.01689066 -0.03882609 -0.009480727 0.014517527
0.02555886 0.0058336984 -0.02765444 0.076818705 -0.002871234 -0.030981675 0.04476647 0.018530007
0.022180675 -0.019334579 0.017739156 -0.011090296 0.023486728 -0.018694973 -0.028785568 -0.03889918
00000000: b9fe d13c 4ff5 763c e94c 31bd 54e2 ad3b
00000010: 098e 52bc d897 2cbc e223 78bc abdf f93a
00000020: a92c 9ebc 06bb 013c acc8 9c3b ceff 64bd
00000030: 485e 8a3c 1b08 1fbd 0d55 1bbc ecda 6d3c
00000040: d060 d13c 9c28 bf3b 908b e2bc 2053 9d3d
00000050: 502b 3cbb 48cd fdbc 0c5d 373d 3ecc 973c
00000060: 3fb4 b53c 8d63 9ebc b551 913c 13b4 35bc
00000070: 3d67 c03c 3326 99bc b6cf ebbc bf54 1fbd

weight f4 [64, 32, 5, 5]
0.025072772 -0.008165888 0.037576884 -0.009254857 -0.015229216 -0.020055156 0.026292017 -0.030767389
0.01909558 0.016699 0.013343011 -0.03193751 -0.021897769 -0.006239669 0.012853906 -0.00843403
-0.033253558 -0.031257376 0.0146843 -0.024937395 0.03255091 -0.013386848 0.024887493 -0.016446412
0.0020291375 0.018508026 -0.0151222795 0.019349514 0.022853823 0.020928983 -0.024624951 -0.030623114
0.032333214 -0.012252632 -0.031925663 -0.014872162 -0.018562224 -0.03423212 -0.02197376 -0.031219628
-0.0053247786 0.03214575 -0.031683203 -0.027974537 -0.011152929 -0.023472726 0.018978622 -0.025585216
-0.01975848 0.01898582 0.030281898 0.0053764647 0.0023467448 -0.022030028 -0.03423525 -0.014347691
-0.033645727 -0.025021987 -0.019642036 -0.018219456 0.025164025 -0.016605547 -0.033411603 0.0027305833
-0.036471613 0.012895929 0.0017750316 -0.032292727 -0.0050949375 -0.013363256 0.0018957587 0.0047951895
-0.02088768 0.0020159576 -0.03600314 0.023154017 -0.021003066 0.023228692 0.03573142 0.019864919
-0.019698013 -0.024662642 0.0018080767 0.0052746134 -0.012497602 0.00018722181 -0.004683675 0.017477868
0.0060198037 0.026326519 -0.01960549 0.028824765 0.03081585 -0.022974255 -0.02996628 -0.014155332
0.00410335 0.000391389 0.016907046 0.0016750428 -0.016217936 0.001211591 -0.0076439804 0.014062488
-0.0037509382 -0.031616412 0.019045863 0.007387607 0.023113152 0.019319182 -0.01129343 0.01818187
0.0024557237 -0.012697098 -0.018390067 0.0051022484 -0.019506695 0.008240759 0.03356994 0.0004916573
0.029328853 -0.00068227464 -0.023333287 -0.022464614 -0.019282777 0.0050460845 -0.033048034 -0.0011645677
-0.04125239 -0.01948963 -0.022759987 -0.004230467 -0.027807778 0.014819869 -0.020882444 0.006226574
0.021843875 -0.016541548 -0.03549074 -0.024013171 0.008151544 -0.02026578 -0.034062356 -0.032977417
-0.020822497 0.0020272553 -0.022196291 0.014013848 -0.040154316 -0.02698668 -0.016134622 0.028229978
0.0071336306 -0.005185163 0.0034106125 0.03490551 0.014088231 -0.02979977 0.029723512 0.0038374192
0.025292959 0.01607123 -0.019949622 0.008168252 0.0049277334 -0.029152803 -0.009618321 0.01448698
0.029675404 0.03652374 -0.004609431 -0.031614784 -0.028444747 0.0073636584 0.003962893 0.03685309
0.020369614 -0.0007162801 0.014827982 -0.02243355 0.035755638 0.023480654 -0.025166221 -0.023204643
-0.0012834648 -0.002742086 0.03421098 0.025897758 0.0035464058 -0.017811682 0.008037383 -0.030630955
0.017245272 0.034897257 -0.03157367 0.003061074 0.012112949 0.0023036725 -0.028267799 0.022413718
0.036733184 -0.0069148596 0.025295628 0.038087007 0.026813341 0.031988025 -0.0100868 -0.016393455
0.02981732 -0.0077940347 -0.01498426 0.0069671967 -0.006185313 0.014950325 0.027306981 0.034780458
-0.007615672 -0.030840982 -0.0062339436 0.021250118 -0.032021683 -0.029272059 0.011863138 -0.008585767
-0.0032856045 -0.004462576 0.016554218 0.0051350845 0.018229978 0.019872455 0.02050047 -0.0008343406
-0.0338847 -0.0063754558 -0.004962026 -0.0028426014 0.016144894 0.0051048924 -0.0074640648 -0.004262623
0.034936067 0.022056406 0.000635892 0.009528138 0.020996334 0.024054665 -0.02290899 -0.006882985
-0.02210269 0.030880136 0.018121429 0.0036744701 0.01463625 -0.027544336 -0.022419967 0.000254149
00000000: 6a65 cd3c 37ca 05bc 38ea 193d afa1 17bc
00000010: f683 79bc b64a a4bc 5b62 d73c e40b fcbc
00000020: 556e 9c3c 57cc 883c a59c 5a3c e8d0 02bd
00000030: f362 b3bc 2376 ccbb 3099 523c e32e 0abc
00000040: e234 08bd bc07 00bd 6b96 703c 8249 ccbc
00000050: 1a54 053d 8354 5bbc dbe0 cb3c a0ba 86bc
00000060: 47fb 043b 259e 973c 70c3 77bc df82 9e3c
00000070: f137 bb3c 4273 ab3c 44ba c9bc 53dd fabc
00000080: d56f 043d 43bf 48bc 7cc4 02bd 5eaa 73bc
00000090: ce0f 98bc fb36 0cbd 5102 b4bc 4ec0 ffbc
000000a0: 7b7b aebb 43ab 033d 3fc6 01bd db2a e5bc
000000b0: c6ba 36bc e049 c0bc 0e79 9b3c 1698 d1bc
000000c0: 89dc a1bc 2688 9b3c be11 f83c 0e2d b03b
000000d0: d8cb 193b 5178 b4bc 433a 0cbd 9412 6bbc
000000e0: 1ad0 09bd e9fa ccbc 56e8 a0bc f840 95bc
000000f0: c924 ce3c 5b08 88bc 9bda 08bd 96f3 323b
00000100: 4263 15bd 7249 533c 2da8 e83a 6145 04bd
00000110: 6ff3 a6bb 8ff1 5abc 1b7b f83a f720 9d3b
00000120: a41c abbc 281e 043b 0778 13bd 7ead bd3c
00000130: 9f0e acbc 194a be3c 1c5b 123d c1bb a23c
00000140: ba5d a1bc 4f09 cabc fdfc ec3a aad6 ac3b
00000150: bec2 4cbc f950 4439 8379 99bb bf2d 8f3c
00000160: c641 c53b b6aa d73c b19b a0bc ea21 ec3c
00000170: 8571 fc3c 8134 bcbc d87b f5bc c4eb 67bc
00000180: 6575 863b 5833 cd39 a580 8a3c 1c8d db3a
00000190: 7adb 84bc 3fce 9e3a 5b7a fabb 5a66 663c
000001a0: 4dd2 75bb 3680 01bd 1206 9c3c bd13 f23b
000001b0: cb57 bd3c 4343 9e3c 1408 39bc 25f2 943c
000001c0: 35f0 203b 7d07 50bc c4a6 96bc c330 a73b
000001d0: 81cc 9fbc 4004 073c a280 093d 90e2 003a
000001e0: 1043 f03c adda 32ba 7325 bfbc b607 b8bc
000001f0: eaf6 9dbc a059 a53b 605d 07bd 68a4 98ba
00000200: 44f8 28bd b7a8 9fbc 2773 babc bb9f 8abb
00000210: 23cd e3bc 09cf 723c a911 abbc 4a08 cc3b
00000220: edf1 b23c 2482 87bc bd5e 11bd 45b7 c4bc
00000230: 0e8e 053c 6c04 a6bc f884 0bbd 5413 07bd
00000240: f193 aabc b3db 043b ffd4 b5bc 579a 653c
00000250: da78 24bd 2c13 ddbc c12c 84bc 8e42 e73c
00000260: 3bc1 e93b 4de8 a9bb 9584 5f3b 14f9 0e3d
00000270: 53d2 663c a61e f4bc b97e f33c 367d 7b3b
00000280: 2e33 cf3c d0a7 833c 646d a3bc 22d4 053c
00000290: d378 a13b dcd1 eebc 2a96 1dbc cc5a 6d3c
000002a0: d519 f33c eb99 153d b60a 97bb 817e 01bd
000002b0: f504 e9bc d84a f13b 28db 813b 44f3 163d
000002c0: 2dde a63c bec4 3bba 10f1 723c 90c6 b7bc
000002d0: 8174 123d 805a c03c 6429 cebc aa17 bebc
000002e0: ef39 a8ba 92b4 33bb d020 0c3d 8927 d43c
000002f0: d16a 683b cee9 91bc 3aaf 033c c5ed fabc
00000300: f545 8d3c 6df0 0e3d 6553 01bd 4d9c 483b
00000310: 6475 463c 36f9 163b df91 e7bc f99c b73c
00000320: 8975 163d 0c96 e2bb c738 cf3c 1f01 1c3d
00000330: a7a7 db3c e005 033d 1b43 25bc 914b 86bc
00000340: 7443 f43c 1a65 ffbb 8b80 75bc 154d e43b
00000350: 2bae cabb 35f2 743c e4b2 df3c f475 0e3d
00000360: e38c f9bb 3aa6 fcbc 1c46 ccbb ba14 ae3c
00000370: 2b29 03bd f5cb efbc 9b5d 423c 51ab 0cbc
00000380: 4c53 57bb cd3a 92bb b69c 873c 3644 a83b
00000390: 0957 953c 8fcb a23c 9af0 a73c a6b7 5aba
000003a0: afca 0abd 33e9 d0bb 7e98 a2bb f04a 3abb
000003b0: 4c42 843c f146 a73b 1d95 f4bb 79ad 8bbb
000003c0: 1f19 0f3d a3af b43c fdb1 263a e81b 1c3c
000003d0: 8100 ac3c 4a0e c53c a2ab bbbc aa8a e1bb
000003e0: b310 b5bc 57f8 fc3c 6473 943c 61cf 703b
000003f0: e2cc 6f3c a9a4 e1bc 14aa b7bc 4d3f 8539

bias f4 [64]
0.02099772 -0.023307895 -0.04812336 -0.00847633 0.034031395 0.03604269 0.004597464 0.0032149758
0.04675806 -0.015643679 -0.02150463 0.040867362 -0.0066392794 -0.00043905075 -0.009225191 0.018385116
0.023443434 0.00689165 0.021322666 -0.013147305 0.035338156 0.0032729772 -0.026847484 -0.023320757
0.008552264 0.0059703286 0.0177544 0.009204334 0.010091628 0.0068615493 0.015458238 -0.0142744975
0.02103418 0.024299707 -0.0041927905 0.02127699 0.0039491863 -0.021998959 -0.009398804 -0.009836426
0.027420165 -0.0066071055 -0.00018760422 -0.003452476 0.00924832 0.014508709 0.03774578 0.0047762007
-0.0011676715 -0.014769435 0.014343796 0.007669689 0.0013636326 -0.008883111 0.049766365 -0.028552579
0.0068443688 0.01545811 -0.024356712 0.018354245 -0.028038297 0.01959585 0.029700087 -0.01875896
00000000: 6903 ac3c 33f0 bebc 001d 45bd 4ee0 0abc
00000010: 8164 0b3d 80a1 133d 53a6 963b 58b2 523b
00000020: 6185 3f3d 2c27 80bc 7a2a b0bc 8964 273d
00000030: 508e d9bb 6530 e6b9 4125 17bc 629c 963c
00000040: 720c c03c 5ad3 e13b dfac ae3c cb67 57bc
00000050: bebe 103d 727f 563b 41ef dbbc 2c0b bfbc
00000060: cc1e 0c3c bfa2 c33b ad71 913c c6cd 163c
00000070: 5b57 253c d9d6 e03b 8d44 7d3c 95df 69bc
00000080: df4f ac3c 2e10 c73c ad63 89bb 154d ae3c
00000090: 2d68 813b 2937 b4bc 71fd 19bc f628 21bc
000000a0: 41a0 e03c 6b80 d8bb a0b7 44b9 f042 62bb
000000b0: 4486 173c f0b5 6d3c 529b 1a3d ad81 9c3b
000000c0: 8e0c 99ba 80fb 71bc 3e02 6b3c 0452 fb3b
000000d0: ebbb b23a 788a 11bc d1d7 4b3d 19e7 e9bc
000000e0: ba46 e03b 0344 7d3c ba87 c7bc a45b 963c
000000f0: 92b0 e5bc 7a87 a03c 994d f33c 64ac 99bc

weight f4 [64, 1024]
-0.01975193 -0.016793132 0.016879864 -0.018641178 0.035675142 0.007890572 -0.006821029 -0.008739647
0.0011864244 -0.012315354 -0.0015561241 -0.01700195 0.011176637 0.00551784 -0.026189944 -0.007705049
0.013564111 -0.029091565 0.015732782 -0.026238564 0.020872384 0.017717134 -0.0019791743 -0.026790295
-0.013329077 0.015020859 0.028119605 -0.01951661 0.017013026 0.0075863185 0.010895214 -0.009052086
0.004890669 0.020187452 -0.0021073266 -0.012463926 0.015821286 -0.017242132 -0.020798389 0.018395212
-0.021414831 0.029459903 -0.0028180042 0.013452803 -0.028877774 0.02077949 0.023023613 0.02177152
-0.027098378 -0.0064583393 -0.02899087 0.017073639 -0.03231801 -0.017673442 -0.025210628 -0.006605833
-0.0055277343 0.024369666 -0.03583011 -0.021649549 0.007868007 -0.01648115 0.030441536 -0.016325377
0.024537798 -0.018869031 -0.013171523 -0.025878103 -0.002347595 0.009929983 0.015133766 -0.0023546284
-0.029121663 -0.024489207 -0.030595139 -0.024936166 0.003955933 -0.02517702 0.00077510905 0.012014881
-0.004122276 -0.01799901 -0.00020815527 -0.021536766 0.029422058 -0.005423996 -0.008766361 0.030148339
-0.007028015 -0.013118723 0.0021019354 -0.00029677688 -0.00721635 -0.014967586 -0.007391968 -0.029895186
0.013108808 0.020417945 0.008596093 -0.018646952 0.01933042 0.011316262 -0.0036604523 0.014729794
-0.017272754 0.010848092 -0.03215126 -0.01224997 0.007787104 0.016735386 0.0085485 0.027876668
0.011274579 0.02151134 0.0032865314 -0.0023100658 -0.006935055 0.030336164 -0.017108506 0.00063047936
-0.025742292 0.014425496 0.032855943 0.01654524 0.019138152 0.008734324 -0.0009449776 -0.010485016
0.015042845 0.030093702 0.032166723 0.016213724 -0.021121686 0.01730878 0.025946466 0.00865434
0.0090707615 0.01027971 -0.01724631 0.015861483 0.0029320288 -0.01469366 -0.007484943 0.00033283985
-0.027038632 0.021156574 0.0016208477 0.006517363 -0.015658215 0.002325458 0.0074395672 -0.0072006793
-0.000853849 -0.0010829454 0.011915353 0.011609596 -0.018827226 0.01569202 -0.012366697 -0.0017427506
0.0018906378 0.017403612 0.00027300965 -0.0017312887 -0.015743865 -0.034841545 -0.004648727 -0.029963987
0.0049400805 -0.0072923307 -0.0032709993 0.015072677 -0.00824812 0.008407374 -0.005014191 0.007813155
0.030363373 -0.022413915 0.0033964408 0.02790231 -0.0022373525 0.019832416 0.04105513 0.0025352444
0.027038475 7.5974596e-05 0.018575067 0.008358738 0.008318966 0.027321659 0.017063593 -0.006732312
-0.011262276 0.0036738086 -0.0065720053 0.028190369 -0.016175717 0.027372839 -0.010969141 -0.0005594221
0.0055121924 0.0327903 0.0155962845 0.021283064 0.014031256 0.008769673 -0.0029210395 -0.022307135
-0.012844026 -0.025316974 0.029928392 -0.019665888 -0.025820434 0.028742043 0.018987818 0.015029503
-0.019251572 -0.009831906 -0.015522312 0.0042241276 -0.0023284818 0.007281926 0.0172848 0.011941278
-0.009753228 0.020479333 0.03093562 -0.01110131 -0.0008033725 0.029173505 0.021843249 0.0059782485
-0.027401188 -0.013334588 0.017218774 -0.020025745 0.026081065 -0.023715405 0.011929327 -9.8430464e-05
-0.012032362 -0.019639242 0.00091141724 -0.006906387 0.014484337 0.011938532 0.0057311975 -0.018456122
0.011423897 -0.0067331064 0.011056044 0.024105737 0.0148962 -0.013545093 -0.0065271584 -0.027050901
00000000: cdce a1bc c091 89bc a447 8a3c 62b5 98bc
00000010: 1920 123d 7547 013c f082 dfbb bd30 0fbc
00000020: cc81 9b3a 57c6 49bc dcf6 cbba ac47 8bbc
00000030: 371e 373c ffce b43b 4b8c d6bc a37a fcbb
00000040: 013c 5e3c 6f51 eebc 09e2 803c 42f2 d6bc
00000050: 90fc aa3c 8623 913c 09b5 01bb 5277 dbbc
00000060: 3362 5abc 0d1a 763c 165b e63c 4ce1 9fbc
00000070: e75e 8b3c a796 f83b d781 323c 334f 14bc
00000080: e841 a03b 2860 a53c 131b 0abb 7f35 4cbc
00000090: a49b 813c 5f3f 8dbc 6261 aabc 8eb1 963c
000000a0: 286e afbc e555 f13c 44ae 38bb 2569 5c3c
000000b0: 1591 ecbc c039 aa3c 049c bc3c 305a b23c
000000c0: 6bfd ddbc 7aa0 d3bb 437e edbc 04de 8b3c
000000d0: e45f 04bd e5c7 90bc 8586 cebc be75 d8bb
000000e0: ff21 b5bb e5a2 c73c 98c2 12bd 655a b1bc
000000f0: d0e8 003c 7a03 87bc 8760 f93c ccbc 85bc
00000100: 7e03 c93c 3a93 9abc 5fcd 57bc 51fe d3bc
00000110: 1cda 19bb 5eb1 223c 9ef3 773c 1c50 1abb
00000120: 8e90 eebc 979d c8bc a8a2 fabc ee46 ccbc
00000130: c5a0 813b 0a40 cebc b030 4b3a 10da 443c
00000140: 2814 87bb a972 93bc 4144 5ab9 df6d b0bc
00000150: 8706 f13c c7bb b1bb c8a0 0fbc a6f9 f63c
00000160: 434b e6bb eaef 56bc a0c0 093b b898 9bb9
00000170: 2277 ecbb 9b3a 75bc 5238 f2bb c0e6 f4bc
00000180: 53c6 563c 8943 a73c a1d6 0c3c 7ec1 98bc
00000190: d45a 9e3c d867 393c 33e4 6fbb 3c55 713c
000001a0: 977f 8dbc 32bc 313c 0ab1 03bd 19b4 48bc
000001b0: f72a ff3b a618 893c 020f 0c3c 9c5d e43c
000001c0: 03b9 383c 8d38 b03c d962 573b 7964 17bb
000001d0: 753f e3bb 8c83 f83c 2327 8cbc c146 253a
000001e0: 80e1 d2bc ea58 6c3c f493 063d e289 873c
000001f0: 9dc7 9c3c 691a 0f3c 60b8 77ba 58c9 2bbc
00000200: 4476 763c 1187 f63c 41c1 033d a5d2 843c
00000210: 6307 adbc 25cb 8d3c af8d d43c efca 0d3c
00000220: 889d 143c 3b6c 283c 2248 8dbc f1ef 813c
00000230: 4827 403b adbd 70bc 4144 f5bb 0281 ae39
00000240: 1f80 ddbc 8d50 ad3c a072 d43a 9a8f d53b
00000250: a845 80bc b666 183b 9dc7 f33b adf3 ebbb
00000260: d6d4 5fba 9ef1 8dba 9d38 433c 2d36 3e3c
00000270: 8e3b 9abc 8d8c 803c b09d 4abc 026d e4ba
00000280: 47cf f73a 0592 8e3c bc22 8f39 69ec e2ba
00000290: 47f9 80bc 02b6 0ebd 5954 98bb 0977 f5bc
000002a0: 66e0 a13b 81f4 eebb 435e 56bb 64f3 763c
000002b0: 1f23 07bc 15bf 093c 154e a4bb bf02 003c
000002c0: 9cbc f83c 639d b7bc d296 5e3b 6393 e43c
000002d0: 8ca0 12bb 9777 a23c 6d29 283d 5826 263b
000002e0: cb7f dd3c 8d54 9f38 bd2a 983c 17f3 083c
000002f0: 464c 083c acd1 df3c f3c8 8b3c ba9a dcbb
00000300: 6985 38bc 48c4 703b fa59 d7bb 7def e63c
00000310: f082 84bc 013d e03c e9b7 33bc 2ea6 12ba
00000320: 9f9f b43b 1f4f 063d 8f87 7f3c d259 ae3c
00000330: 5ae3 653c adae 0f3c e96e 3fbb 74bd b6bc
00000340: c06f 52bc 8b65 cfbc 632c f53c 5b1a a1bc
00000350: 6085 d3bc 6f74 eb3c 578c 9b3c 4e3e 763c
00000360: 79b5 9dbc 0116 21bc 4c51 7ebc 8d6a 8a3b
00000370: 7199 18bb 399d ee3b da98 8d3c 5aa5 433c
00000380: 01cc 1fbc 46c4 a73c b36c fd3c 45e2 35bc
00000390: 6a99 52ba 46fd ee3c 9df0 b23c 2fe5 c33b
000003a0: 7578 e0bc 5179 5abc 630e 8d3c 080d a4bc
000003b0: f5a7 d53c cf46 c2bc 3973 433c 746c ceb8
000003c0: 6223 45bc 7ae2 a0bc 2dec 6e3a f94e e2bb
000003d0: b64f 6d3c d599 433c c5cc bb3b 4b31 97bc
000003e0: 4c2b 3b3c 64a1 dcbb 6924 353c 6579 c53c
000003f0: 310f 743c 3dec 5dbc c6e1 d5bb da99 ddbc

bias f4 [64]
-0.005928516 0.014889281 -0.0052131074 0.0038054106 0.0128878215 0.006155652 -0.0075769024 -0.0134635465
0.021049911 0.00014915183 -0.013962899 0.010786254 0.0025684051 -0.0330503 -0.013136329 0.022485938
-0.03551615 -0.0066172373 0.037027225 -0.049615424 0.011186424 0.055263456 -0.025763877 -0.029463097
0.031438515 -0.025426991 0.04653934 0.025336161 -0.000111371686 -0.0241069 -0.022339124 0.022615975
0.005337879 -0.039883375 -0.028581847 0.012731923 -0.009051512 0.014422773 0.012344176 0.048625328
-0.03000957 0.015198479 -0.01034576 -0.009544421 0.03434629 0.03056194 0.018437907 -0.012125137
-0.022323761 -0.005245226 0.03314633 -0.006047466 -0.012860139 -0.033034667 -0.027488949 0.018159198
-0.009262289 0.030127825 0.0180511 0.025733892 -0.0026058883 -0.019983673 0.017492263 0.0068937293
00000000: ff43 c2bb 2cf2 733c b7d2 aabb 3264 793b
00000010: 7127 533c 5ab5 c93b aa47 f8bb 3596 5cbc
00000020: dd70 ac3c a465 1c39 a5c4 64bc d4b8 303c
00000030: b052 283b c05f 07bd c239 57bc 6e34 b83c
00000040: 6279 11bd 69d5 d8bb dca9 173d 8b39 4bbd
00000050: 4347 373c ef5b 623d c40e d3bc 985c f1bc
00000060: acc5 003d 444c d0bc 09a0 3e3d c88d cf3c
00000070: 3890 e9b8 d57b c5bc 8a00 b7bc 2345 b93c
00000080: 60e9 ae3b c05c 23bd 7a24 eabc 8e99 503c
00000090: cb4c 14bc 7f4d 6c3c 3a3f 4a3c 5a2b 473d
000000a0: a1d6 f5bc 0b03 793c 4381 29bc 3460 1cbc
000000b0: b2ae 0c3d 095d fa3c 180b 973c 83a8 46bc
000000c0: 52e0 b6bc 25e0 abbb 72c4 073d d229 c6bb
000000d0: 55b3 52bc 5c4f 07bd 8130 e1bc 99c2 943c
000000e0: dbc0 17bc a1ce f63c e7df 933c e2cf d23c
000000f0: 8dc7 2abb cdb4 a3bc ef4b 8f3c cbe4 e13b

weight f4 [10, 64]
-0.14124084 -0.030863106 0.008582962 0.0068002334 -0.13349898 -0.024227569 -0.11938462 -0.025171967
-0.010771289 -0.053791955 -0.016978838 0.005552563 0.114666045 0.035529897 -0.024809249 0.038021356
0.10471335 0.08805659 -0.13922271 0.13423218 0.081642516 -0.048718438 0.07813061 0.050317828
-0.07560975 0.097443804 -0.1384312 0.029106176 0.105919346 -0.03277435 0.0946843 -0.07910952
-0.12256237 -0.041179407 0.10849507 0.09152686 0.124669954 0.018313615 0.0029275755 -0.037079476
0.010277012 -0.095305726 -0.022345584 0.12641454 0.023305517 0.006888894 0.019096876 -0.04281551
-0.009595396 0.089383624 -0.12775502 -0.096989445 0.12216585 -0.05570204 -0.029603617 -0.110261954
0.07856692 -0.044688858 0.09562663 0.04658429 -0.10396804 0.08465825 0.033227734 -0.03957716
-0.013486057 0.1280637 -0.02277281 0.0027744172 -0.022853194 0.060995262 -0.008014096 0.0100581385
-0.08496408 0.043142583 0.016274178 -0.049120113 -0.020719148 0.028670195 0.009860324 0.030892804
0.1225512 -0.038609903 -0.023015779 0.110324286 0.06918397 -0.06057697 -0.052364465 -0.10271741
0.02975508 0.07797014 0.04087055 0.13256799 0.09364206 -0.036000963 0.07877423 0.101908356
-0.100061566 0.014357795 -0.12983039 -0.06224 0.0914584 0.013594324 0.10074003 -0.08634946
-0.07644949 -0.10735632 0.0042747725 0.10259177 0.029018916 -0.129188 0.09218735 0.12117038
0.0076678144 0.0587437 -0.006778207 -0.08177394 -0.08655502 0.038897064 -0.015882514 0.08411314
-0.052523486 0.05401609 0.015540168 0.13724306 0.09828662 -0.14629841 -0.094199255 0.10383339
0.04862022 0.08302096 0.017150095 -0.15220295 -0.024934286 0.062204853 -0.010164026 0.08956307
0.003299425 -0.10910404 -0.07192302 -0.086070545 0.1190258 0.086991206 -0.06423847 -0.0764857
0.0068763676 -0.01654962 -0.07273343 0.09587933 0.09518853 0.1437711 -0.006017097 0.02040702
-0.13061397 0.0363999 0.05916062 0.07806789 0.07280364 0.094938785 0.05537777 -0.13750774
0.011967848 -0.060953874 -0.11469419 -0.10631407 -0.036135875 -0.013164309 -0.039660297 0.03603983
0.07886043 -0.07373398 -0.042872895 -0.04106177 0.11507791 0.10756268 -0.052921787 -0.04816128
-0.0012480867 0.0735921 0.0136541575 -0.05587214 0.012132738 -0.016346196 -0.026259992 0.013853499
0.064472996 -0.108513534 0.042642064 -0.09947734 -0.033976875 0.040138207 0.090068996 0.075592615
0.08122736 0.06545522 -0.0023977386 -0.05569492 -0.05005278 0.036110654 0.10507812 0.007691383
0.073087424 -0.034735125 -0.024934731 0.101387106 -0.054830913 -0.092833176 -0.07541528 -0.0006704447
-0.1100129 -0.030405879 0.10131497 -0.00019220896 -0.10464318 0.054578234 -0.059827752 0.12784469
0.066108696 0.015159549 -0.05625064 -0.004698642 0.012659228 -0.08254783 -0.092682675 -0.107955396
-0.05407495 -0.04635033 0.09914771 0.05539815 -0.101887584 0.04396522 -0.056616124 0.055900082
-0.019721556 0.11623842 0.005284746 -0.116014145 0.09662191 0.037721463 -0.068817556 0.019337978
-0.026529115 -0.06438251 0.0098412195 -0.08755252 0.03087456 -0.09920788 -0.10782946 -0.0085275015
-0.0006454906 -0.12591015 -0.013168871 0.11649905 -0.046608057 0.05267353 -0.10962584 -0.027755093
00000000: 70a1 10be a0d4 fcbc 8d9f 0c3c 7ed4 de3b
00000010: f5b3 08be e578 c6bc ec7f f4bd 7135 cebc
00000020: 0f7a 30bc f454 5cbd 3417 8bbc 46f2 b53b
00000030: 08d6 ea3d cc87 113d c43c cbbc 48bc 1b3d
00000040: f473 d63d 0357 b43d 6690 0ebe 2974 093e
00000050: 3134 a73d fc8c 47bd f102 a03d 111a 4e3d
00000060: 49d9 9abd 9e90 c73d e9c0 0dbe 1370 ee3c
00000070: 3eec d83d 663e 06bd d8e9 c13d 2c04 a2bd
00000080: fb01 fbbd bdab 28bd aa32 de3d 6f72 bb3d
00000090: f652 ff3d 6f06 963c 91dc 3f3b a6e0 17bd
000000a0: ea60 283c a62f c3bd 160e b7bc d072 013e
000000b0: 36eb be3c 3bbc e13b 0d71 9c3c 515f 2fbd
000000c0: 0236 1dbc c30e b73d 36d2 02be 67a2 c6bd
000000d0: 1732 fa3d d327 64bd 4983 f2bc 05d1 e1bd
000000e0: b1e7 a03d aa0b 37bd e5d7 c33d 2bcf 3e3d
000000f0: 32ed d4bd 4e61 ad3d ce19 083d a91b 22bd
00000100: 9ff4 5cbc 2123 033e 0b8e babc ffd2 353b
00000110: 9f36 bbbc 2bd6 793d 8e4d 03bc e4ca 243c
00000120: a601 aebd 47b6 303d 6d51 853c 2c32 49bd
00000130: 34bb a9bc c2dd ea3c 328d 213c e812 fd3c
00000140: 20fc fa3d 6b25 1ebd 968b bcbc b3f1 e13d
00000150: 53b0 8d3d 8f1f 78bd 1f7c 56bd 815d d2bd
00000160: edc0 f33c cfae 9f3d e167 273d e7bf 073e
00000170: 69c7 bf3d bf75 13bd 6254 a13d 54b5 d03d
00000180: 14ed ccbd f53c 6b3c 42f2 04be 5fef 7ebd
00000190: 8b4e bb3d baba 5e3c ca50 ce3d fcd7 b0bd
000001a0: 8d91 9cbd a1dd dbbd 6413 8c3b a21b d23d
000001b0: 14b9 ed3c dc49 04be b9cc bc3d 2d28 f83d
000001c0: 4a42 fb3b 3c9d 703d b91b debb 1879 a7bd
000001d0: c243 b1bd 8752 1f3d 0c1c 82bc 8343 ac3d
000001e0: de22 57bd fa3f 5d3d 309c 7e3c 7289 0c3e
000001f0: 7f4a c93d 40cf 15be 8aeb c0bd 9aa6 d43d
00000200: ff25 473d e506 aa3d 5b7e 8c3c 17db 1bbe
00000210: fd42 ccbc 84ca 7e3d 0487 26bc d86c b73d
00000220: 2a3b 583b f071 dfbd 604c 93bd c145 b0bd
00000230: ccc3 f33d 7228 b23d 758f 83bd 89a4 9cbd
00000240: 2753 e13b 1293 87bc 44f5 94bd 625c c43d
00000250: 34f2 c23d bb38 133e 112b c5bb 9f2c a73c
00000260: abbf 05be 1018 153d 6852 723d 0fe2 9f3d
00000270: 131a 953d 446f c23d cdd3 623d d4ce 0cbe
00000280: cb14 443c c5aa 79bd cae4 eabd 31bb d9bd
00000290: 3603 14bd 1daf 57bc d672 22bd 809e 133d
000002a0: 9481 a13d d701 97bd 7d9b 2fbd 6330 28bd
000002b0: f8ad eb3d d349 dc3d 84c4 58bd c344 45bd
000002c0: d796 a3ba 74b7 963d b0b5 5f3c 2fda 64bd
000002d0: 64c8 463c 75e8 85bc 321f d7bc c9f9 623c
000002e0: 6b0a 843d 583c debd 72a9 2e3d c7ba cbbd
000002f0: 562b 0bbd f667 243d 1876 b83d 4dd0 9a3d
00000300: 885a a63d 630d 863d 6123 1dbb 5b20 64bd
00000310: 2504 4dbd c4e8 133d 3333 d73d ff07 fc3b
00000320: dcae 953d 6b46 0ebd ec43 ccbc 0ba4 cf3d
00000330: 6196 60bd 521f bebd 5473 9abd c8c0 2fba
00000340: 714e e1bd c015 f9bc 397e cf3d b38b 49b9
00000350: 2a4f d6bd 6d8d 5f3d f20d 75bd b8e9 023e
00000360: ff63 873d c25f 783c 1267 66bd 11f7 99bb
00000370: a768 4f3c d60e a9bd 6ad0 bdbd b817 ddbd
00000380: b27d 5dbd d8d9 3dbd f40d cb3d 2ce9 623d
00000390: 70aa d0bd e014 343d 4fe6 67bd 7cf7 643d
000003a0: 1a8f a1bc 690e ee3d aa2b ad3b d398 edbd
000003b0: b5e1 c53d d281 1a3d 38f0 8cbd ae6a 9e3c
000003c0: 9653 d9bc fada 83bd 113d 213c bc4e b3bd
000003d0: a5ec fc3c 802d cbbd b1d5 dcbd efb6 0bbc
000003e0: 2436 29ba 97ee 00be 40c2 57bc 0e97 ee3d
000003f0: 17e8 3ebd 33c0 573d 8383 e0bd a65e e3bc

bias f4 [10]
0.0103867175 0.0003230163 -0.02735359 -0.0912681 -0.064819634 0.05442499 0.04890437 0.045847658
-0.036172483 0.08148109
00000000: 0d2d 2a3c 845a a939 a314 e0bc c5ea babd
00000010: 28c0 84bd bdec 5e3d f34f 483d c1ca 3b3d
00000020: 9929 14bd 8fdf a63d
